dqn/save/eval.pth (torch, 21131 bytes, 26 tensors)

layer1_task.0.weight f4 [16, 3]
0.27114305 0.026310557 -0.059689302 0.4331983 0.43350843 -0.23176399 0.048000373 0.56241435
0.3586974 0.5580689 -0.3465962 0.07772155 -0.86222965 0.36994165 0.30682945 -0.082016535
0.009094657 0.3188177 0.13224176 0.07127166 -0.06646293 -0.2292766 0.10629917 0.17235707
0.26471683 -0.5010636 0.631537 -0.026140412 0.52885634 0.15825677 -0.0070237643 -0.11817676
0.2717683 -0.4141302 0.40749627 -0.13296248 -0.20932722 0.040142924 0.6907443 0.060374722
0.23668818 0.13966763 -0.4068584 0.031223457 0.13275157 0.12222843 -0.25926664 0.5257913
00000000: 43d3 8a3e 3d89 d73c c57c 74bd 2bcc dd3e
00000010: d1f4 dd3e 8a53 6dbe 0a9c 443d 63fa 0f3f
00000020: 30a7 b73e 9add 0e3f 0f75 b1be 7a2c 9f3d
00000030: 15bb 5cbf fe68 bd3e c018 9d3e 49f8 a7bd
00000040: c201 153c 133c a33e 626a 073e e0f6 913d
00000050: b71d 88bd 7cc7 6abe 61b3 d93d 5f7e 303e
00000060: f788 873e b445 00bf 69ac 213f 6b24 d6bc
00000070: 2163 073f 100e 223e 9b27 e6bb a806 f2bd
00000080: 3725 8b3e e008 d4be 5aa3 d03e 5127 08be
00000090: e059 56be e86c 243d 9ed4 303f 7c4b 773d
000000a0: 635e 723e 0805 0f3e bf4f d0be 56c8 ff3c
000000b0: 07f0 073e e652 fa3d 99be 84be 429a 063f

layer1_task.0.bias f4 [16]
-0.0036687294 -0.022696525 0.017058566 -0.024427148 0.043327056 -0.0055353437 0.07529072 -0.03732549
-0.005387532 0.0018406672 -0.028986827 -0.0058973744 -0.0025211154 0.007972389 0.039558586 0.022546325
00000000: 116f 70bb 10ee b9bc 68be 8b3c 711b c8bc
00000010: b677 313d d461 b5bb 0532 9a3d 9de2 18bd
00000020: e589 b0bb 8b42 f13a c875 edbc c33e c1bb
00000030: 4c39 25bb a09e 023c 2f08 223d 12b3 b83c

layer1_task.2.weight f4 [16]
1.0471506 1.0076777 0.9321671 1.0384862 0.99352485 0.9729927 0.9195795 0.9881259
1.0134308 1.0254893 1.0101541 1.0238807 0.9969266 0.98180914 1.0314851 0.9470925
00000000: 0809 863f 95fb 803f 81a2 6e3f 1eed 843f
00000010: a557 7e3f 0d16 793f 9069 6b3f d2f5 7c3f
00000020: 1ab8 813f 3c43 833f bb4c 813f 860e 833f
00000030: 9536 7f3f d857 7b3f b407 843f a774 723f

layer1_task.2.bias f4 [16]
0.06054614 -0.0069093076 -0.07235909 0.027723024 -0.008472538 -0.028434759 -0.067678854 -0.033663824
0.02782971 0.021160398 -0.0076674144 0.025210636 0.012660394 -0.015800482 0.048438437 -0.053854752
00000000: 3bff 773d 7967 e2bb 0131 94bd 651b e33c
00000010: 66d0 0abc 03f0 e8bc 369b 8abd 14e3 09bd
00000020: 22fb e33c 9258 ad3c ef3e fbbb 8986 ce3c
00000030: 8b6d 4f3c 0370 81bc 6267 463d cd96 5cbd

layer1_task.2.running_mean f4 [16]
9437.249 14616.579 1806.5717 19495.127 -28811.281 -2716.751 4501.799 -7855.8877
9688.318 -849.704 -149.86966 -13962.747 -6787.6704 2165.9204 -14362.797 4344.834
00000000: ff74 1346 5162 6446 4bd2 e144 414e 9846
00000010: 9016 e1c6 04cc 29c5 64ae 8c45 1a7f f5c5
00000020: 4661 1746 0e6d 54c4 a2de 15c3 fd2a 5ac6
00000030: 5d1d d4c5 ba5e 0745 306b 60c6 acc6 8745

layer1_task.2.running_var f4 [16]
3.615835e+07 9.435046e+07 1.2481482e+06 1.4865123e+08 3.6760467e+08 3.0797212e+06 8.497349e+06 2.5153802e+07
3.4868732e+07 296985.8 8853.563 8.799259e+07 2.0610762e+07 1.8062666e+06 7.681978e+07 8.007715e+06
00000000: e4ee 094c 90f5 b34c a25c 9849 cec3 0d4d
00000010: 9e49 af4d a5f8 3b4a c5a8 014b 85e8 bf4b
00000020: 7f03 054c 3a03 9148 4156 0a46 22d5 a74c
00000030: 653f 9d4b d57d dc49 a885 924c 4660 f44a

layer1_1vm.0.weight f4 [32, 40]
-0.026607903 0.020465458 -0.34600735 -0.23526666 -0.121028304 0.21277519 0.072078854 -0.17092618
-0.23427148 -0.10327563 0.22558783 0.2415549 -0.06496097 -0.124515384 0.02378974 0.109432556
-0.08010791 -0.34633848 -0.16579087 -0.20973393 0.1506548 0.2660091 -0.002790534 -0.17613652
0.030451246 -0.22061887 0.08015775 -0.16984177 -0.16507222 0.14033869 -0.14773452 -0.122857034
0.04237555 -0.24323267 0.14109461 -0.12352351 0.03289248 -0.08398707 0.09327061 -0.036108583
0.20407765 0.056419026 0.10436107 0.2076555 0.005213462 0.08660164 -0.095973276 0.2819664
-0.18890886 0.15104859 0.036526933 -0.10782788 -0.12493422 -0.057907656 -0.040771134 -0.0045329668
-0.09784293 -0.025590466 -0.035861038 0.16953431 -0.16760479 -0.030513681 -0.015277139 0.12972791
0.19530478 0.074483044 0.33897987 0.20356083 -0.0050005456 0.15792856 0.03268507 0.09629888
-0.07965395 0.29411396 0.27854803 0.09373206 0.23308401 0.004766456 -0.24961936 0.02778628
-0.06420113 0.085314944 -0.02673315 0.092202574 -0.08572785 0.043130327 0.0034169494 -0.11430235
-0.2811425 0.114828706 -0.008042935 0.15728694 -0.36367097 -0.26411876 -0.31830668 0.1550272
0.016195217 0.14884283 0.399217 0.055838276 -0.032405104 0.058583867 0.10066122 -0.1496712
0.015338119 -0.3494534 -0.08995919 -0.35918844 -0.032356627 0.022399835 -0.17895597 -0.13766313
0.048678216 -0.070047595 0.07005372 -0.018452594 0.26719457 -0.25970626 -0.19975571 -0.2168309
0.09617889 -0.10261926 -0.14242597 0.2787608 -0.031409483 -0.0036103944 -0.080223165 0.26111984
0.012392285 0.20015888 -0.33089277 0.037231363 -0.40961808 -0.0035118787 0.14500146 -0.047353886
-0.034664888 -0.15879144 -0.06502898 0.20858547 0.11090954 -0.004505321 -0.14558102 0.2792187
0.23798692 0.08134814 -0.14296636 0.023171335 0.15193032 -0.11401686 0.10465152 0.21644518
-0.087872475 -0.0185283 0.117320634 -0.15148893 -0.119397305 -0.051019456 0.18654487 0.018526813
0.052545723 0.08718708 -0.25024 -0.08367427 -0.05481248 0.05531373 0.06965086 -0.13966015
-0.09480386 -0.028524745 0.0020103545 -0.12999858 -0.05702582 -0.12608805 0.009696691 0.1665958
-0.027350593 0.20627497 -0.14558166 -0.15198085 0.10696794 -0.10173314 0.15504871 0.05283131
0.06284799 0.054541208 0.1429317 0.09090766 0.10770411 0.19915506 0.1952475 -0.06742948
-0.3681744 -0.033511613 0.15434834 0.19178237 -0.02141379 -0.111921325 0.09715868 0.19040582
-0.22110054 0.23100255 0.0816495 -0.12999141 0.032911636 0.19498976 -0.13185783 0.0791952
-0.03417178 -0.1653442 -0.24593411 -0.31434587 0.06690404 0.15894613 0.00089587807 -0.012077353
-0.11367255 -0.027998552 0.043476515 0.06427133 -0.0817469 0.06743256 -0.16909361 -0.12991478
-0.049046583 -0.069189146 0.14658125 -0.07521915 -0.06849217 -0.16207425 -0.36485824 -0.023124779
0.0851863 0.2021656 0.1316179 -0.17876534 0.16526245 0.15554367 -0.147497 -0.06125229
-0.16856635 0.13715835 0.14330277 0.057557125 0.119963616 0.092947714 0.037785195 -0.3602731
-0.089155525 0.1127659 0.06445577 0.3015684 0.28072 0.2332586 0.24891624 0.02167776
00000000: d1f8 d9bc 2da7 a73c e027 b1be bee9 70be
00000010: b0dd f7bd bde1 593e 149e 933d 4607 2fbe
00000020: dde4 6fbe 2c82 d3bd 7f00 673e 2b5a 773e
00000030: 420a 85bd ec01 ffbd b3e2 c23c 2d1e e03d
00000040: 9e0f a4bd 4753 b1be 15c5 29be 7ec4 56be
00000050: 4045 1a3e 5832 883e 64e1 36bb 225d 34be
00000060: e474 f93c eae9 61be bf29 a43d 00eb 2dbe
00000070: b108 29be f2b4 0f3e b847 17be 789c fbbd
00000080: fc91 2d3d fc11 79be 1b7b 103e e5f9 fcbd
00000090: 44ba 063d 6a01 acbd a904 bf3d 98e6 13bd
000000a0: bbf9 503e a317 673d 42bb d53d a5a3 543e
000000b0: b0d5 aa3b 335c b13d a38d c4bd e65d 903e
000000c0: 5371 41be 7bac 1a3e 449d 153d ddd4 dcbd
000000d0: 83dd ffbd 9430 6dbd a2ff 26bd 4889 94bb
000000e0: e061 c8bd 19a3 d1bc 06e3 12bd 679a 2d3e
000000f0: 97a0 2bbe d4f7 f9bc f74c 7abc 65d7 043e
00000100: fafd 473e 918a 983d c58e ad3e 4072 503e
00000110: 9edb a3bb 06b8 213e c8e0 053d 5938 c53d
00000120: 9c21 a3bd 1b96 963e d99d 8e3e 98f6 bf3d
00000130: 93ad 6e3e ee2f 9c3b 389c 7fbe 0da0 e33c
00000140: e27b 83bd 9ab9 ae3d 7bff dabc b4d4 bc3d
00000150: 1592 afbd 6da9 303d e6ee 5f3b 5a17 eabd
00000160: e9f1 8fbe 502b eb3d 84c6 03bc d40f 213e
00000170: 1533 babe 933a 87be 18f9 a2be 73bf 1e3e
00000180: d5ab 843c 416a 183e 2c66 cc3e adb6 643d
00000190: 37bb 04bd a3f5 6f3d 7827 ce3d 6843 19be
000001a0: bc4c 7b3c 8eeb b2be 863c b8bd 8ce7 b7be
000001b0: 6288 04bd dc7f b73c 3c40 37be 90f7 0cbe
000001c0: cf62 473d 1d75 8fbd 5378 8f3d e529 97bc
000001d0: bacd 883e 38f8 84be c38c 4cbe eb08 5ebe
000001e0: 70f9 c43d 0c2a d2bd 1dd8 11be bcb9 8e3e
000001f0: 3ba7 00bd 5e9c 6cbb 0b4c a4bd 80b1 853e
00000200: 0309 4b3c 73f6 4c3e c76a a9be ea7f 183d
00000210: 76b9 d1be 8c27 66bb 437b 143e 26f6 41bd
00000220: c5fc 0dbd 399a 22be ea2d 85bd 6e97 553e
00000230: 8a24 e33d 5fa1 93bb 3113 15be c1f5 8e3e
00000240: d8b2 733e db99 a63d c665 12be d0d1 bd3c
00000250: 9f93 1b3e ac81 e9bd 8953 d63d cea3 5d3e
00000260: 7cf6 b3bd a9c8 97bc cd45 f03d ea1f 1bbe
00000270: 9386 f4bd c7f9 50bd 9e05 3f3e 8bc5 973c
00000280: 2f3a 573d 248f b23d 751f 80be 6a5d abbd
00000290: 0d83 60bd a690 623d 1ca5 8e3d 1203 0fbe
000002a0: 8728 c2bd baac e9bc 27c0 033b 591e 05be
000002b0: e893 69bd 3a1d 01be dfde 1e3c 1798 2a3e
000002c0: 5a0e e0bc bf39 533e 5c13 15be dea0 1bbe
000002d0: 0212 db3d 7759 d0bd 17c5 1e3e a565 583d
000002e0: 72b6 803d 9a66 5f3d b05c 123e cc2d ba3d
000002f0: f993 dc3d 4eef 4b3e f6ee 473e 7818 8abd
00000300: 5b81 bcbe 7943 09bd 7e0d 1e3e 9962 443e
00000310: f96b afbc 0237 e5bd 21fb c63d bef9 423e
00000320: 2e68 62be ef8b 6c3e da37 a73d 781c 05be
00000330: 5ace 063d 65ab 473e bd05 07be 1831 a23d
00000340: b5f7 0bbd fd4f 29be 27d6 7bbe f1f1 a0be
00000350: fc04 893d c6c2 223e 5cd9 6a3a 17e0 45bc
00000360: 27cd e8bd 385d e5bc 6e14 323d b0a0 833d
00000370: eb6a a7bd 151a 8a3d e026 2dbe 6108 05be
00000380: 12e5 48bd 0ab3 8dbd 6519 163e 7f0c 9abd
00000390: 9f45 8cbd cbf6 25be b3ce babe 2d70 bdbc
000003a0: 2876 ae3d 8004 4f3e d8c6 063e 430e 37be
000003b0: 8f3a 293e d746 1f3e 7409 17be aee3 7abd
000003c0: a89c 2cbe 3d73 0c3e f6bd 123e 05c1 6b3d
000003d0: 7caf f53d 5f5b be3d a6c4 1a3d b775 b8be
000003e0: 2c97 b6bd cff1 e63d 6301 843d 2c67 9a3e
000003f0: 88ba 8f3e 58db 6e3e e6e3 7e3e 8f95 b13c

layer1_1vm.0.bias f4 [32]
0.0147184385 0.026032832 0.00085900223 -0.001588371 0.01701278 -0.06491932 0.024738297 0.006754892
-0.00482115 -0.03483758 0.022525683 -0.02329664 -0.0045691626 0.034203798 0.012251012 -0.024679277
-0.043756217 0.019029051 0.03694571 -0.037417006 0.0142921675 -0.010923457 -0.019258596 0.015806302
0.036193874 0.027662745 0.01797273 0.04421583 0.048628993 -0.027424043 0.034749262 -0.043142155
00000000: 9b25 713c ce42 d53c aa2e 613a e330 d0ba
00000010: 635e 8b3c 6cf4 84bd f8a7 ca3c 2458 dd3b
00000020: bdfa 9dbb dab1 0ebd c887 b83c 98d8 bebc
00000030: eab8 95bb 4819 0c3d 78b8 483c 322c cabc
00000040: b839 33bd d0e2 9b3c 6354 173d 9342 19bd
00000050: b229 6a3c 4df8 32bc 34c4 9dbc 387c 813c
00000060: 0740 143d fb9c e23c 8c3b 933c a81b 353d
00000070: 322f 473d 63a8 e0bc 3e55 0e3d d4b5 30bd

layer1_1vm.2.weight f4 [32]
1.0001501 0.9672801 0.9834434 1.0487537 0.9893089 1.0427771 1.0128481 1.0429591
0.9810315 1.0151727 1.0050191 1.0203596 0.9821756 0.98716354 1.0273507 0.9783416
1.0340387 0.9984619 0.963585 1.023932 1.01262 0.9949678 1.0036982 0.9902989
0.9692479 0.97929555 1.054845 0.9908539 0.97909725 1.0232996 0.9773828 1.0208877
00000000: eb04 803f ab9f 773f f2c2 7b3f 903d 863f
00000010: 5943 7d3f b879 853f 02a5 813f af7f 853f
00000020: e124 7b3f 2ef1 813f 77a4 803f 259b 823f
00000030: dc6f 7b3f c0b6 7c3f 3a80 833f 9874 7a3f
00000040: 615b 843f 339b 7f3f 82ad 763f 3410 833f
00000050: 889d 813f 36b6 7e3f 2f79 803f 3b84 7d3f
00000060: a120 783f 1db3 7a3f 2905 873f 9aa8 7d3f
00000070: 1ea6 7a3f 7bfb 823f c235 7a3f 73ac 823f

layer1_1vm.2.bias f4 [32]
0.0167885 -0.03171889 -0.014819761 0.024886066 -0.009777672 0.02311355 0.020582916 0.028094234
-0.013722643 0.019046718 0.011947802 0.024631064 -0.0079215495 0.017520025 0.017298965 -0.039515324
0.016188364 -0.0039439616 -0.036686424 0.008472262 0.013127343 -0.0074807466 0.004985893 -0.009285965
-0.013588791 -0.0027702327 0.057025753 0.012709731 0.003264695 0.01411702 0.0010440059 0.020895505
00000000: 0988 893c abeb 01bd 95ce 72bc dddd cb3c
00000010: 8732 20bc a158 bd3c 819d a83c e125 e63c
00000020: f0d4 60bc dd07 9c3c b7c0 433c 16c7 c93c
00000030: 63c9 01bc 2886 8f3c 8fb6 8d3c d2da 21bd
00000040: 769d 843c 593c 81bb 8144 16bd 3ecf 0a3c
00000050: 1114 573c 0d21 f5bb b460 a33b 2924 18bc
00000060: 85a3 5ebc cb8c 35bb d693 693d 7a3c 503c
00000070: 7ef4 553b 134b 673c 06d7 883a 0d2d ab3c

layer1_1vm.2.running_mean f4 [32]
-5135.4253 8210.224 -4149.856 2598.4373 3072.5374 -2289.5156 5235.2476 71.67958
-6284.871 -5975.9536 4022.9685 -5709.003 1883.8296 7113.417 10415.683 -9840.297
-1018.05743 57.183823 7912.54 -8727.717 5773.8896 -5399.68 -9287.699 -2206.4385
4339.458 7626.911 6574.3823 10111.009 -1624.3083 1504.8564 6284.1807 -8923.721
00000000: 677b a0c5 e548 0046 d9ae 81c5 ff66 2245
00000010: 9908 4045 4018 0fc5 fb99 a345 f25b 8f42
00000020: f866 c4c5 a1bf bac5 7f6f 7b45 0668 b2c5
00000030: 8c7a eb44 564b de45 bbbe 2246 30c1 19c6
00000040: ad83 7ec4 3cbc 6442 5244 f745 de5e 08c6
00000050: 1e6f b445 71bd a8c5 cc1e 11c6 04e7 09c5
00000060: aa9b 8745 4a57 ee45 0f73 cd45 09fc 1d46
00000070: de09 cbc4 681b bc44 7261 c445 e26e 0bc6

layer1_1vm.2.running_var f4 [32]
1.4417106e+07 3.7503092e+07 5.1987465e+06 5.121035e+06 2.5253758e+06 5.0906745e+06 8.1653965e+06 112485.695
1.3721243e+07 1.1636948e+07 4.3749005e+06 1.1127353e+07 1.0431006e+07 1.888425e+07 2.7162226e+07 3.2526058e+07
1.5454216e+07 9.235948e+06 1.6413168e+07 4.4376564e+07 8.869315e+06 8.23014e+06 2.3058438e+07 1.6810512e+06
6.365649e+06 3.0075622e+07 2.4203668e+07 4.3087624e+07 1.4607659e+07 1.1228785e+06 1.2253909e+07 1.9897566e+07
00000000: d2fc 5b4b 1d10 0f4c 35a7 9e4a 1648 9c4a
00000010: ff22 1a4a e55a 9b4a 2930 f94a d9b2 db47
00000020: 9b5e 514b d490 314b e982 854a 39ca 294b
00000030: 1e2a 1f4b 4d13 904b 393b cf4b 7527 f84b
00000040: 08d0 6b4b eced 0c4b f071 7a4b 7d48 294c
00000050: c355 074b f829 fb4a 03ec af4b da34 cd49
00000060: a243 c24a 7375 e54b caa8 b84b c25d 244c
00000070: 2be5 5e4b f411 8949 d5fa 3a4b 6fce 974b

layer1_2vm.0.weight f4 [16, 32]
0.24825001 -0.009247157 0.09012576 -0.0702245 0.24162388 0.29465085 0.058328167 0.026812827
0.16701218 -0.18074258 -0.02807885 -0.25259846 -0.09015089 0.064971626 0.104921475 -0.22221397
-0.06125536 0.36342376 0.13087466 -0.24647883 0.30941156 0.016754327 0.27434263 0.12040296
0.1544248 -0.07030159 -0.49090004 -0.19274463 0.066467896 -0.27397916 0.1589375 0.4734751
0.2354438 0.07792734 0.45350748 0.11366541 0.09977731 -0.18073243 0.19092345 0.056819353
-0.05561645 0.29980928 -0.16082045 0.17289637 0.036297433 0.05222947 -0.2191921 -0.08505075
-0.15738878 0.2568681 0.008203515 0.099705264 0.16761354 -0.038292285 -0.067713074 -0.07172971
-0.16374213 -0.121126615 0.2968237 0.11188241 -0.16976044 -0.5264245 -0.18412353 0.02652315
0.12628034 0.21013805 -0.15776141 0.07051707 0.27788377 -0.19853973 -0.15305182 -0.16300441
-0.007887225 -0.3178509 -0.21155792 -0.046156388 0.31363434 0.10339831 -0.23234196 -0.19791752
-0.10479319 -0.03995931 -0.11484077 0.19252473 0.3599479 -0.12115043 0.063047156 0.066528305
0.3066837 0.3951307 0.20579967 -0.29191124 0.10082946 0.18417451 -0.15213585 -0.009826908
-0.0649072 0.118607655 -0.14285555 0.012868454 0.0059655933 -0.12191458 0.13951755 0.09474647
0.13016719 0.22096641 -0.037804347 0.23192187 0.20128328 -0.11528235 -0.46027073 -0.025806323
-0.023978388 0.017902356 0.19791728 0.092428654 -0.2621605 -0.11785754 0.13683523 -0.050686542
-0.014391699 0.0069706407 -0.20754366 -0.1190586 0.27333272 -0.21711412 0.34292912 -0.22885637
0.19492804 0.25049475 -0.33938465 0.024907473 0.035177007 -0.30345425 0.06481928 -0.095680244
-0.13838618 -0.040993303 -0.010111132 -0.06791927 0.15850501 0.06681728 0.2475678 -0.3488398
-0.17002223 -0.0658322 -0.13079593 0.039789632 -0.2327739 -0.14815673 -0.081247196 0.2118857
0.20798482 -0.006323077 0.07852442 -0.18839246 -0.21474783 -0.043185696 0.14719656 -0.42802396
-0.050815765 -0.06862043 -0.029528452 -0.2848962 0.4167197 0.13974616 0.08983805 0.05780484
0.14530122 0.2535577 -0.1885942 0.32361713 0.37337413 -0.12870091 0.22530073 0.037895665
-0.12640956 -0.12344235 0.25784823 -0.23354729 -0.04703561 -0.0019526924 0.031357273 0.3243842
-0.29156774 -0.453574 -0.37856922 -0.2825421 0.11472016 -0.028655099 0.2633748 0.30267552
0.17588565 0.15862608 0.23044321 0.19728939 0.021803856 -0.26663414 0.14213033 -0.14363235
-0.14360482 0.09601664 0.022068243 0.08939643 -0.093872346 0.23163551 0.14187956 -0.15803437
0.3179648 -0.10982329 -0.08905179 0.6488258 -0.30558 0.12894884 0.09630606 -0.07429609
0.024462985 0.11305652 -0.19622913 -0.062945426 0.27300173 0.017719833 0.061491445 0.10468794
-0.0046777506 0.15820774 0.18452175 -0.19777548 0.047063038 0.1541669 -0.24472655 -0.13592109
0.23010252 -0.08206678 -0.12217983 0.03386962 -0.10235676 -0.12347796 0.0358709 0.365562
0.054368585 0.17875811 -0.017070137 -0.19736043 -0.057235006 -0.046439495 -0.35299867 -0.27635294
0.31603009 -0.21637504 0.022096004 0.15030177 -0.21911235 0.23118801 -0.07510078 0.26280025
00000000: 4035 7e3e 6381 17bc db93 b83d ddd1 8fbd
00000010: 406c 773e 7adc 963e 84e9 6e3d 93a6 db3c
00000020: 3e05 2b3e 9514 39be 9e05 e6bc 9654 81be
00000030: 08a1 b8bd d80f 853d 12e1 d63d 0f8c 63be
00000040: e6e6 7abd ae12 ba3e 0204 063e f264 7cbe
00000050: 316b 9e3e 5f40 893c a376 8c3e d495 f63d
00000060: 8921 1e3e 48fa 8fbd 4057 fbbe d95e 45be
00000070: 5220 883d ff46 8cbe 83c0 223e 546b f23e
00000080: 2e18 713e 5f98 9f3d 2232 e83e 69c9 e83d
00000090: 0c58 cc3d ec11 39be 7081 433e 69bb 683d
000000a0: 13ce 63bd 9a80 993e 1eae 24be bf0b 313e
000000b0: 9eac 143d 92ee 553d e573 60be 162f aebd
000000c0: 862a 21be 3784 833e 0968 063c 4632 cc3d
000000d0: e2a2 2b3e 5fd8 1cbd 27ad 8abd 07e7 92bd
000000e0: 04ac 27be 3b11 f8bd 47f9 973e 9b22 e53d
000000f0: aed5 2dbe c2c3 06bf e18a 3cbe 1447 d93c
00000100: a24f 013e 6e2e 573e 358c 21be 416b 903d
00000110: c846 8e3e 004e 4bbe 9eb9 1cbe a1ea 26be
00000120: 6b39 01bc 5abd a2be a4a2 58be 7b0e 3dbd
00000130: ae94 a03e 7ec2 d33d 0deb 6dbe e4aa 4abe
00000140: d09d d6bd 60ac 23bd a331 ebbd 3425 453e
00000150: 174b b83e b71d f8bd de1e 813d fe3f 883d
00000160: a505 9d3e 924e ca3e 26bd 523e 6475 95be
00000170: ad7f ce3d 3e98 3c3e 80c9 1bbe 0a01 21bc
00000180: 11ee 84bd 92e8 f23d ba48 12be 35d6 523c
00000190: 067b c33b 5aae f9bd b0dd 0e3e 700a c23d
000001a0: 8c4a 053e 0545 623e bbd8 1abd ed7c 6d3e
000001b0: 341d 4e3e 2719 ecbd 9ba8 ebbe c867 d3bc
000001c0: 536e c4bc f6a7 923c d4aa 4a3e 3c4b bd3d
000001d0: e739 86be 4b5f f1bd 891e 0c3e b19c 4fbd
000001e0: 29cb 6bbc f969 e43b 5386 54be ffd4 f3bd
000001f0: 44f2 8b3e 2a53 5ebe 6894 af3e 5359 6abe
00000200: 379b 473e d940 803e d3c3 adbe c20a cc3c
00000210: c415 103d 5b5e 9bbe f8bf 843d 01f4 c3bd
00000220: 1bb5 0dbe 98e8 27bd 29a9 25bc 4219 8bbd
00000230: 234f 223e 80d7 883d 6a82 7d3e 219b b2be
00000240: 4f1a 2ebe 08d3 86bd 5eef 05be 74fa 223d
00000250: 485c 6ebe 66b6 17be ee64 a6bd 91f8 583e
00000260: f9f9 543e d031 cfbb 69d1 a03d f4e9 40be
00000270: dbe6 5bbe 7ce3 30bd b2ba 163e f525 dbbe
00000280: 3124 50bd de88 8cbd a7e5 f1bc eadd 91be
00000290: 495c d53e 9e19 0f3e 03fd b73d c5c4 6c3d
000002a0: d8c9 143e 51d2 813e d71e 41be 25b1 a53e
000002b0: e52a bf3e 2cca 03be 3cb5 663e 7c38 1b3d
000002c0: 8271 01be 58cf fcbd af04 843e 0527 6fbe
000002d0: 69a8 40bd 7cf1 ffba 7c70 003d b015 a63e
000002e0: 5e48 95be da3a e8be d3d3 c1be 5ca9 90be
000002f0: 67f2 ea3d 19be eabc 10d9 863e 49f8 9a3e
00000300: 5e1b 343e e06e 223e 4ef9 6b3e 3b06 4a3e
00000310: 009e b23c 4584 88be 9d8a 113e 5c14 13be
00000320: 240d 13be 5fa4 c43d 76c8 b43c 7a15 b73d
00000330: 2540 c0bd dc31 6d3e e048 113e c3d3 21be
00000340: 48cc a23e 08eb e0bd c960 b6bd 7319 263f
00000350: fb74 9cbe 2a0b 043e 1d3c c53d 8c28 98bd
00000360: 9966 c83c 2d8a e73d 4af0 48be 88e9 80bd
00000370: e2c6 8b3e 2f29 913c 74de 7b3d a166 d63d
00000380: d147 99bb 3601 223e 45f3 3c3e a885 4abe
00000390: 2cc5 403d eedd 1d3e 9999 7abe e62e 0bbe
000003a0: ff9f 6b3e a112 a8bd 6b39 fabd dfba 0a3d
000003b0: 6ca0 d1bd 03e2 fcbd 5ded 123d f12a bb3e
000003c0: 98b1 5e3d 5e0c 373e acd6 8bbc da18 4abe
000003d0: 416f 6abd 5737 3ebd 3ebc b4be 227e 8dbe
000003e0: b2ce a13e 6b91 5dbe ae02 b53c b5e8 193e
000003f0: fd5e 60be 8dbc 6c3e 70ce 99bd c18d 863e

layer1_2vm.0.bias f4 [16]
0.022442844 0.009969876 0.014048611 0.0243289 -0.018892258 -0.010121403 -0.0031969852 -0.03300444
-0.036342014 -0.0047363774 -0.013174834 -0.017629365 -0.010524708 0.0018313841 0.008231073 -0.011186808
00000000: 0eda b73c b158 233c 252c 663c 674d c73c
00000010: f0c3 9abc 3ed4 25bc 8384 51bb aa2f 07bd
00000020: 5ddb 14bd 9d33 9bbb 42db 57bc 756b 90bc
00000030: d36f 2cbc 0e0b f03a 9fdb 063c e048 37bc

layer1_2vm.2.weight f4 [16]
0.97962964 0.9860548 0.99379706 0.9835551 1.0059946 0.9844116 1.0008351 1.0286562
1.0346233 1.0012739 1.0593808 0.9895469 0.9838603 0.98995024 1.0034671 0.9913206
00000000: 02c9 7a3f 166e 7c3f 7c69 7e3f 44ca 7b3f
00000010: 6ec4 803f 6602 7c3f 5d1b 803f 02ab 833f
00000020: 896e 843f be29 803f ca99 873f f252 7d3f
00000030: 45de 7b3f 616d 7d3f 9c71 803f 30c7 7d3f

layer1_2vm.2.bias f4 [16]
0.011919228 -1.7893435e-05 -0.0057527362 -0.0016692277 0.010446967 -0.017994197 -0.004041111 0.041312147
0.03874925 -0.007922149 0.036103234 -0.036465254 0.0005401871 -0.028203003 0.012419086 0.003332467
00000000: de48 433c dc19 96b7 7381 bcbb fdc9 daba
00000010: c129 2b3c 9168 93bc 4c6b 84bb ed36 293d
00000020: 89b7 1e3d e7cb 01bc fce0 133d 975c 15bd
00000030: 589b 0d3a fc09 e7bc 6c79 4b3c 8565 5a3b

layer1_2vm.2.running_mean f4 [16]
0.42849618 0.26122937 0.24360967 -0.012738004 -0.5486132 0.14886169 0.674765 -0.074783854
-0.87655324 -0.49914306 0.52014905 0.37064254 -0.86418754 0.013994587 -0.2924655 0.04533758
00000000: da63 db3e dbbf 853e d074 793e 10b3 50bc
00000010: ea71 0cbf 336f 183e 66bd 2c3f 4728 99bd
00000020: cb65 60bf ae8f ffbe 7d28 053f dcc4 bd3e
00000030: 653b 5dbf 8d49 653c 0abe 95be e6b3 393d

layer1_2vm.2.running_var f4 [16]
0.60274976 1.0559435 0.36122385 0.30909312 0.56204504 0.6672554 0.6605655 0.51382965
0.9900108 0.50328404 0.5350704 0.2781326 1.228312 0.24917375 0.5023229 0.3940667
00000000: cf4d 1a3f 2829 873f 55f2 b83e 7441 9e3e
00000010: 2fe2 0f3f 40d1 2a3f d21a 293f 578a 033f
00000020: 5971 7d3f 39d7 003f 60fa 083f 6567 8e3e
00000030: 5439 9d3f 6727 7f3e 3c98 003f 1cc3 c93e

layer2.0.weight f4 [16, 32]
-0.17484476 0.5066508 -0.011564442 0.11184544 0.1517378 -0.08678982 0.18784459 0.21224183
0.031952534 0.26291656 0.20126535 0.35154387 -0.42627728 -0.0074938564 -0.12100833 0.27507824
-0.00806224 -0.14561379 0.05372238 0.2228448 0.07435378 -0.056459896 0.14644846 0.09613212
-0.055607896 0.03563806 -0.41999632 0.31062248 -0.20277044 0.26104477 -0.17683062 0.074830145
0.03867523 0.2511158 0.14255673 0.30314064 0.19590774 0.061199028 -0.1228306 0.06733111
0.16387688 -0.06555888 -0.11828727 -0.022461692 -0.12189409 0.009498618 0.42364186 -0.03499324
-0.33468974 0.2500723 0.16599491 -0.032352734 0.35848266 0.09942343 -0.041321643 0.089347236
-0.5839659 0.10130526 -0.07962814 0.19362137 -0.021141717 -0.13974546 -0.050150674 -0.109784074
-0.3298298 0.29827136 0.19281368 -0.1843624 -0.070854776 0.13363007 -0.0004780611 -0.17106855
-0.45403636 0.039017588 -0.121923335 0.25102693 0.21390326 -0.06821796 0.06494109 0.35191736
0.27708176 -0.03141449 -0.09640382 0.63424355 -0.3748785 0.07198203 0.11136353 0.043349676
-0.1577241 0.14455345 0.12836456 0.020686371 -0.1709599 -0.0049129506 0.16069068 0.1231812
-0.034570705 0.1043289 -0.11067219 -0.083374776 0.13599707 0.38662058 -0.42321172 -0.21474147
0.18135503 -0.30803883 -0.27152526 -0.39559644 -0.44016552 0.03187602 0.073798515 0.23483515
-0.07044278 0.16163142 -0.16719747 -0.14292581 -0.06796587 -0.107692584 0.0043879766 0.023253364
-0.32455984 -0.080060236 -0.09711038 -0.049048655 -0.059193846 -0.09357276 -0.058196995 0.23513275
0.15359344 -0.33481467 -0.031741075 -0.41269156 -0.09624719 -0.4801543 0.23921567 -0.16485104
-0.27500826 -0.39216596 0.11590247 0.07029828 0.20089683 -0.07347544 0.15044348 -0.17201881
-0.054761544 -0.34395027 0.3313901 -0.12441075 -0.104075424 -0.32298195 -0.11476156 0.11255066
-0.3321037 0.3042879 -0.32803938 -0.20797148 -0.099869296 -0.06901012 0.24889779 0.07059314
-0.11265816 -0.13775134 -0.15562724 -0.0018615142 0.24640857 0.009300322 -0.50381786 -0.18921292
-0.2349799 -0.09835597 -0.17371279 -0.12960821 0.17635024 -0.12952852 0.34369776 -0.08693211
0.018975 0.24061888 0.043280423 -0.32477725 -0.24921246 -0.21728225 0.058808222 0.26674747
-0.0040018377 -0.0063186656 -0.19459197 -0.03948068 -0.26707166 0.07445697 0.117837 -0.29819363
-0.14016083 -0.11193112 0.1574716 -0.3261156 0.28778836 0.044443235 0.029377528 -0.11301822
-0.13207269 -0.1725357 0.003666166 0.0365277 -0.16113536 -0.016951032 0.13108803 0.16831438
-0.1669469 -0.2947398 -0.064861886 -0.23291159 -0.17918812 -0.11278742 0.1489 -0.039591126
-0.14240125 -0.22978503 0.12378192 0.05304483 -0.08646077 0.35385883 -0.09424273 0.049955748
-0.15304977 -0.32729015 -0.2888739 -0.33533478 -0.13832352 -0.05598679 -0.107565366 0.07034173
-0.4853871 0.10307451 0.1256305 0.08379423 -0.10755228 0.14563999 0.17104504 -0.030526077
-0.2120657 -0.22468933 -0.45259583 -0.15726878 -0.06609017 0.010025686 0.03955654 -0.18400359
0.056230832 -0.1517508 -0.04434982 0.12157559 0.2757045 -0.079632185 -0.16965806 -0.37535298
00000000: 810a 33be deb3 013f c978 3dbc 390f e53d
00000010: 2761 1b3e dcbe b1bd 555a 403e ec55 593e
00000020: a9e0 023d 009d 863e 8118 4e3e 8ffd b33e
00000030: 0441 dabe 068f f5bb 37d3 f7bd 0ed7 8c3e
00000040: 7c17 04bc c81b 15be 000c 5c3d 6d31 643e
00000050: cb46 983d 7e42 67bd 96f6 153e ebe0 c43d
00000060: 1bc5 63bd 37f9 113d c209 d7be e909 9f3e
00000070: 0ea3 4fbe a9a7 853e 1613 35be 8c40 993d
00000080: eb69 1e3d 4092 803e 64fa 113e 4035 9b3e
00000090: 0a9c 483e d5ab 7a3d 9c8e fbbd e5e4 893d
000000a0: 57cf 273e bc43 86bd 9940 f2bd 9501 b8bc
000000b0: 9ca3 f9bd 17a0 1b3c 96e7 d83e 1255 0fbd
000000c0: 745c abbe 7a09 803e 92fa 293e 4d84 04bd
000000d0: 0a8b b73e 839e cb3d e240 29bd affb b63d
000000e0: ca7e 15bf 2279 cf3d 1414 a3bd ae44 463e
000000f0: 6531 adbc 6f19 0fbe cb6a 4dbd 79d6 e0bd
00000100: 74df a8be 06b7 983e f370 453e 7fc9 3cbe
00000110: 4f1c 91bd 52d6 083e 46a4 fab9 982c 2fbe
00000120: 7477 e8be e8d0 1f3d f1b2 f9bd 9a86 803e
00000130: 7509 5b3e dcb5 8bbd d6ff 843d 832e b43e
00000140: a9dd 8d3e 7bac 00bd 5e6f c5bd c95d 223f
00000150: 13f0 bfbe 516b 933d 9012 e43d 6e8f 313d
00000160: 6d82 21be d205 143e 0072 033e 7776 a93c
00000170: 1d10 2fbe d1fc a0bb 198c 243e 6d46 fc3d
00000180: 039a 0dbd 64aa d53d 1aa8 e2bd 65c0 aabd
00000190: d142 0b3e 22f3 c53e 35af d8be 30e5 5bbe
000001a0: 22b5 393e 44b7 9dbe 5c05 8bbe 9e8b cabe
000001b0: 605d e1be 6e90 023d ad23 973d a078 703e
000001c0: 4e44 90bd b582 253e d035 2bbe 255b 12be
000001d0: b131 8bbd ee8d dcbd 04c9 8f3b d77d be3c
000001e0: b52c a6be 9ff6 a3bd cfe1 c6bd 3ee7 48bd
000001f0: 3f75 72bd 13a3 bfbd f95f 6ebd a4c6 703e
00000200: 9947 1d3e d46c abbe ee02 02bd 4f4c d3be
00000210: 3f1d c5bd c9d6 f5be f4f4 743e b6ce 28be
00000220: e2cd 8cbe fac9 c8be 465e ed3d 8bf8 8f3d
00000230: e6b7 4d3e 4b7a 96bd db0d 1a3e b325 30be
00000240: a44d 60bd 401a b0be f7ab a93e 10cb febd
00000250: 7f25 d5bd e45d a5be 1c08 ebbd f680 e63d
00000260: 7f09 aabe a0cb 9b3e c7f4 a7be 7af6 54be
00000270: 4688 ccbd 2e55 8dbd 10df 7e3e 2393 903d
00000280: 52b9 e6bd b00e 0dbe bf5c 1fbe 0dfe f3ba
00000290: 8752 7c3e 6160 183c 35fa 00bf 08c1 41be
000002a0: 929e 70be db6e c9bd c4e1 31be 04b8 04be
000002b0: 2895 343e 20a3 04be 27f9 af3e 7609 b2bd
000002c0: 7671 9b3c cc64 763e d046 313d 3449 a6be
000002d0: 8d31 7fbe 3d7f 5ebe e4e0 703d 2093 883e
000002e0: d921 83bb cf0c cfbb 1e43 47be 7eb6 21bd
000002f0: 9ebd 88be e57c 983d 8654 f13d d6ac 98be
00000300: 5286 0fbe 253c e5bd 3c40 213e a0f8 a6be
00000310: ff58 933e 1c0a 363d 24a9 f03c 1976 e7bd
00000320: 103e 07be 33ad 30be 0f44 703b 129e 153d
00000330: ab00 25be e4dc 8abc f13b 063e 9b5a 2c3e
00000340: 21f4 2abe 23e8 96be 4fd6 84bd 6080 6ebe
00000350: 177d 37be 17fd e6bd 3e79 183e 4e2a 22bd
00000360: a2d1 11be c44c 6bbe 6081 fd3d 8945 593d
00000370: 5812 b1bd fc2c b53e 5502 c1bd 669e 4c3d
00000380: 14b9 1cbe 9392 a7be 48e7 93be 00b1 abbe
00000390: aea4 0dbe 6852 65bd 3b4b dcbd 530f 903d
000003a0: a884 f8be bb18 d33d 48a5 003e 4f9c ab3d
000003b0: 5f44 dcbd a622 153e 6e26 2f3e d311 fabc
000003c0: c027 59be f614 66be a4ba e7be 110b 21be
000003d0: 485a 87bd c642 243c 0a06 223d 706b 3cbe
000003e0: 4d52 663d 9064 1bbe 28a8 35bd 9ffc f83d
000003f0: 2429 8d3e 3316 a3bd d8ba 2dbe 442e c0be

layer2.0.bias f4 [16]
-0.049074594 0.10275462 -0.007849416 -0.039339785 -0.028181141 0.01821051 -0.039558634 0.009197587
-0.014619713 -0.012398368 -0.060342602 -0.00041089518 0.050276153 -0.030171745 0.024518603 -0.0057828953
00000000: 7102 49bd 0471 d23d d69a 00bc c122 21bd
00000010: 23dc e6bc 352e 953c 3c08 22bd 7ab1 163c
00000020: 8587 6fbc 8622 4bbc ce29 77bd 6b6d d7b9
00000030: 5eee 4d3d bc2a f7bc 3ddb c83c 717e bdbb

layer2.2.weight f4 [16]
0.9629578 1.1195216 0.98289436 0.9751239 1.137427 0.9456215 1.1317834 0.9767447
0.95515466 1.0022591 0.8961089 1.0596085 1.0682076 0.9358342 0.96775484 0.9402276
00000000: 6784 763f 7c4c 8f3f f79e 7b3f b8a1 793f
00000010: 3597 913f 4014 723f 47de 903f f10b 7a3f
00000020: 0485 743f 074a 803f 6567 653f 40a1 873f
00000030: 07bb 883f d592 6f3f c8be 773f c2b2 703f

layer2.2.bias f4 [16]
-0.058833502 0.12545058 -0.026586482 -0.013654468 0.14862096 -0.06545184 0.1482522 -0.03792421
-0.05684983 0.017206717 -0.111005574 0.06094847 0.07396276 -0.07174508 -0.04412566 -0.0728971
00000000: 66fb 70bd 1e76 003e e5cb d9bc fdb6 5fbc
00000010: 1830 183e 9d0b 86bd 6dcf 173e 6b56 1bbd
00000020: 5edb 68bd 1af5 8c3c e456 e3bd 1aa5 793d
00000030: ca79 973d 16ef 92bd 1cbd 34bd 134b 95bd

layer2.2.running_mean f4 [16]
0.5954247 0.57665545 0.33165073 -0.91288036 -1.1020905 -0.76085156 -0.56653583 -1.1956434
-0.029428734 -0.4675016 -0.03281781 0.49853158 0.19948764 0.5991747 0.04347108 0.6988651
00000000: c16d 183f b19f 133f 20ce a93e 87b2 69bf
00000010: 4d11 8dbf 2bc7 42bf 7e08 11bf d80a 99bf
00000020: 8714 f1bc 5f5c efbe f86b 06bd 883f ff3e
00000030: 7d46 4c3e 8363 193f bb0e 323d d3e8 323f

layer2.2.running_var f4 [16]
0.6573532 0.6485659 0.70810163 0.7274116 1.088708 1.0061951 0.45618123 1.4435937
0.6858203 0.7371773 0.54670155 0.6273752 0.5800824 0.50488937 0.79131174 0.7586752
00000000: 4d48 283f 6a08 263f 2646 353f a637 3a3f
00000010: c95a 8b3f 00cb 803f 9690 e93e aec7 b83f
00000020: eb91 2f3f a7b7 3c3f a2f4 0b3f a99b 203f
00000030: 4880 143f 6e40 013f 6893 4a3f 8a38 423f

layer3.0.weight f4 [20, 16]
-0.1344965 0.010144836 0.14508525 0.29721847 0.12906943 0.12042881 0.29876983 0.23589633
0.31446737 0.48455536 -0.4710729 0.29722533 -0.24649617 0.344243 0.51440686 0.31917468
0.44653353 0.45343143 0.2324001 -0.18106529 0.1764402 0.038114503 0.48688343 -0.038266588
0.031232918 0.052112825 -0.31345877 0.27064103 0.13478579 -0.1919943 -0.15138823 -0.0882868
-0.1413489 0.38015708 -0.02053097 -0.23115148 0.24064091 0.26589915 -0.31280026 -0.1701479
-0.19221279 0.4835206 -0.58251333 -0.027601078 0.40075278 0.00079753576 -0.32532325 0.056991957
0.0715428 0.03014993 -0.28330594 0.26963294 0.43832973 0.0742434 0.36457542 -0.17585357
-0.20341055 0.27213115 0.34507313 0.22266434 -0.12789674 -0.010141369 0.22285888 0.009601477
-0.11768029 0.08546164 -0.27269605 0.07366521 -0.01363799 0.102475636 0.12871794 -0.2722253
0.23785 -0.09864882 -0.08201729 -0.1384812 0.36970675 0.1676539 0.11548257 -0.13679034
0.24268812 0.11800145 -0.38919863 -0.19021623 0.35605666 -0.5614113 0.107003465 0.40104973
-0.11561867 -0.17163132 -0.18112947 0.115789585 -0.5594455 0.020524515 -0.12397491 0.097000815
0.14033215 0.07473413 -0.223258 0.22017431 0.08019557 0.3889409 0.3052773 0.3617697
0.14321472 0.38376293 -0.013878493 -0.18085319 -0.20125987 0.3230532 -0.02391613 0.38917446
-0.18248583 0.15801094 -0.014314814 0.10591533 0.049220953 -0.078711465 -0.018658482 -0.1448168
0.11367072 0.38745677 -0.011391574 0.016633065 0.033938903 0.27980444 -0.48412898 0.19128959
-0.5828386 0.14098331 -0.013843917 0.23362048 0.20922019 -0.21402293 -0.25613162 0.010369353
-0.15510821 -0.06566374 0.07749476 -0.09268546 0.26211667 -0.073001355 0.23805858 -0.23599935
0.24615079 -0.15373544 0.07910331 0.26717442 0.39558646 0.1297623 0.43485978 0.27368402
0.17305845 -0.18371098 0.57864165 -0.029375667 0.26769385 0.2313959 -0.24977168 -0.28280368
0.5150935 -0.33751675 -0.45143947 -0.09163537 0.26741424 -0.12760068 0.25914252 -0.12714069
-0.044813972 -0.1741 0.48874643 0.3805869 -0.083439276 0.3777539 0.1230011 0.109643884
0.18906009 0.2741412 0.4150715 -0.39762443 0.046806686 0.14236198 0.2449284 0.2470617
0.27101755 -0.4033842 -0.1415547 0.19755438 -0.08599871 0.02403759 0.1262308 0.0027659044
-0.08383107 0.29731977 0.18994321 0.15699226 -0.2347104 -0.07740084 0.19333085 0.52858806
-0.24844754 -0.2368373 -0.23830141 0.53994757 0.2524068 -0.029691612 -0.09345726 0.08025961
0.2916167 0.39579403 0.436761 0.06301236 0.07645256 0.2125964 -0.052195206 0.10475307
0.3234163 -0.1393268 -0.22947447 0.11869838 0.16357933 -0.12781288 -0.10943032 0.004398386
0.11675802 0.3649546 0.09479759 -0.11232833 -0.11839608 -0.30123362 -0.05565736 0.088614486
0.3687151 0.072978705 0.4572642 0.039896682 -0.17013566 0.07785668 0.085705884 0.14138936
0.2986183 0.17768924 0.049260043 -0.20398578 0.083677046 -0.6062858 -0.04214633 0.25861964
-0.45795435 0.25938737 -0.09300525 -0.54361826 0.12276704 0.26681468 0.12230059 -0.34019697
00000000: 73b9 09be 8736 263c 3a91 143e 052d 983e
00000010: c72a 043e 61a3 f63d 5cf8 983e cf8e 713e
00000020: de01 a13e a417 f83e 7830 f1be eb2d 983e
00000030: 7e69 7cbe 9e40 b03e 2bb0 033f dd6a a33e
00000040: 0ba0 e43e 2a28 e83e 4bfa 6d3e 2e69 39be
00000050: bdac 343e f41d 1c3d c948 f93e 6dbd 1cbd
00000060: 2ddc ff3c 4274 553d ab7d a0be 7691 8a3e
00000070: 4905 0a3e 279a 44be 8405 1bbe b6cf b4bd
00000080: c4bd 10be f3a3 c23e 9130 a8bc f9b2 6cbe
00000090: 926a 763e ef23 883e 5b27 a0be 403b 2ebe
000000a0: 6ed3 44be 0390 f73e 981f 15bf a81b e2bc
000000b0: 782f cd3e b811 513a c590 a6be 6670 693d
000000c0: 0885 923d fcfc f63c 7a0d 91be 540d 8a3e
000000d0: c16c e03e ec0c 983d a1a9 ba3e f512 34be
000000e0: db4a 50be c654 8b3e 6dad b03e 1f02 643e
000000f0: 5df7 02be fc27 26bc 1e35 643e 834f 1d3c
00000100: 5d02 f1bd 8306 af3d d19e 8bbe c9dd 963d
00000110: e071 5fbc bfde d13d a3ce 033e 1d61 8bbe
00000120: f38e 733e 6408 cabd aef8 a7bd 04ce 0dbe
00000130: 344a bd3e 77ad 2b3e 2082 ec3d c412 0cbe
00000140: 3c83 783e bfaa f13d 0b45 c7be 0bc8 42be
00000150: 0f4d b63e a7b8 0fbf a224 db3d 6456 cd3e
00000160: 7bc9 ecbd 1fc0 2fbe 017a 39be 1723 ed3d
00000170: d237 0fbf 0723 a83c 8fe6 fdbd 5da8 c63d
00000180: 3bb3 0f3e 350e 993d bf9d 64be 6075 613e
00000190: 933d a43d 4323 c73e 4e4d 9c3e e139 b93e
000001a0: e1a6 123e 937c c43e 9e62 63bc 9431 39be
000001b0: 1117 4ebe 3b67 a53e c3eb c3bc e041 c73e
000001c0: 91dd 3abe 9fcd 213e ae88 6abc 23ea d83d
000001d0: e99b 493d 7a33 a1bd acd9 98bc db4a 14be
000001e0: 32cc e83d bc60 c63e b9a3 3abc 1142 883c
000001f0: 8503 0b3d 8742 8f3e c1df f7be 6be1 433e
00000200: e934 15bf ee5d 103e 99d1 62bc 353a 6f3e
00000210: d13d 563e d428 5bbe af23 83be 38e4 293c
00000220: b0d4 1ebe b67a 86bd 93b5 9e3d e0d1 bdbd
00000230: 2834 863e bc81 95bd a1c5 733e d0a9 71be
00000240: f40e 7c3e d36c 1dbe eb00 a23d 16cb 883e
00000250: 4f8a ca3e 69e0 043e f1a5 de3e 5020 8c3e
00000260: 3c36 313e bb1e 3cbe dc21 143f 3da5 f0bc
00000270: 2b0f 893e 0cf3 6c3e 26c4 7fbe a5cb 90be
00000280: 2bdd 033f ffce acbe 1323 e7be 53ab bbbd
00000290: 85ea 883e c1a9 02be 54ae 843e 2b31 02be
000002a0: db8e 37bd 4547 32be f93c fa3e 49dc c23e
000002b0: 36e2 aabd f668 c13e 00e8 fb3d f98c e03d
000002c0: f898 413e 3c5c 8c3e 4084 d43e 6e95 cbbe
000002d0: 5eb8 3f3d 57c7 113e 83ce 7a3e befd 7c3e
000002e0: d0c2 8a3e 6088 cebe b7f3 10be b24b 4a3e
000002f0: 1720 b0bd 7bea c43c a642 013e 2d44 353b
00000300: a0af abbd 4c3a 983e 7980 423e 94c2 203e
00000310: ec57 70be 5584 9ebd 86f8 453e 8c51 073f
00000320: 0869 7ebe 7a85 72be 4905 74be 013a 0a3f
00000330: 773b 813e d33b f3bc 8566 bfbd 275f a43d
00000340: c94e 953e 84a5 ca3e 239f df3e a00c 813d
00000350: 2993 9c3d dfb2 593e a4ca 55bd c788 d63d
00000360: d296 a53e afab 0ebe 5bfb 6abe 2318 f33d
00000370: 5781 273e 61e1 02be 011d e0bd 5620 903b
00000380: d41e ef3d 54db ba3e 3d25 c23d 650c e6bd
00000390: a579 f2bd 4b3b 9abe f9f8 63bd 837b b53d
000003a0: 3ac8 bc3e dc75 953d 891e ea3e b46a 233d
000003b0: 0b38 2ebe 5373 9f3d 9186 af3d 5fc8 103e
000003c0: 7fe4 983e 2bf4 353e e6c4 493d a6e1 50be
000003d0: df5e ab3d 8c35 1bbf a1a1 2cbd cb69 843e
000003e0: fe78 eabe 6cce 843e 8979 bebd 912a 0bbf
000003f0: 496d fb3d ef9b 883e bb78 fa3d 4c2e aebe

layer3.0.bias f4 [20]
0.12935495 0.12631711 0.10914877 0.12990214 0.12452468 0.10600199 0.114147976 0.10925056
0.13060844 0.102093555 0.109239794 0.10625217 0.102507554 0.11638566 0.11493409 0.0878916
0.12100827 0.13013314 0.105631925 0.12358186
00000000: a075 043e 4659 013e 6489 df3d 1105 053e
00000010: cc06 ff3d 9217 d93d 6ac6 e93d c2be df3d
00000020: 38be 053e 6d16 d13d 1db9 df3d bd9a d93d
00000030: 7bef d13d 9b5b ee3d 9062 eb3d 8300 b43d
00000040: 2fd3 f73d 9f41 053e 8d55 d83d 7c18 fd3d
