dqn/save/target.pth (torch, 21131 bytes, 26 tensors)

layer1_task.0.weight f4 [16, 3]
0	0x3e8ad5bd	0.27116194
1	0x3cd76b6a	0.026296336
2	0xbd746e1b	-0.059675317
3	0x3eddc932	0.43317562
4	0x3eddf88c	0.4335369
5	0xbe6d58f3	-0.23178463
6	0x3d445df7	0.047941174
7	0x3f0ffd74	0.56246114
8	0x3eb79f6a	0.3586381
9	0x3f0edb3b	0.5580327
10	0xbeb17874	-0.3466221
11	0x3d9f1cae	0.07769142
12	0xbf5cbad0	-0.86222553
13	0x3ebd692f	0.3699431
14	0x3e9d1933	0.30683288
15	0xbda80352	-0.08203758
16	0x3c15771f	0.009122639
17	0x3ea33956	0.3187968
18	0x3e076441	0.13221838
19	0x3d91fd26	0.07128362
20	0xbd882960	-0.06648517
21	0xbe6aca0f	-0.22928642
22	0x3dd9b609	0.106304236
23	0x3e307be2	0.17234758
24	0x3e878721	0.26470283
25	0xbf0046a1	-0.5010777
26	0x3f21aba0	0.63152504
27	0xbcd63065	-0.026146123
28	0x3f076227	0.52884144
29	0x3e220c93	0.15825109
30	0xbbe8f021	-0.0071087037
31	0xbdf1f146	-0.118135974
32	0x3e8b1a14	0.27168334
33	0xbed40aed	-0.41414586
34	0x3ed0a10e	0.40747875
35	0xbe082b5e	-0.13297793
36	0xbe565a39	-0.20932855
37	0x3d246c69	0.04014245
38	0x3f30d49e	0.6907443
39	0x3d7759c8	0.060388356
40	0x3e725c58	0.23668039
41	0x3e0f090a	0.13968292
42	0xbed05224	-0.40687668
43	0x3cffb675	0.031214932
44	0x3e07eaff	0.13273238
45	0x3dfa5867	0.12223893
46	0xbe84bb1c	-0.25924003
47	0x3f069af1	0.5258017

layer1_task.0.bias f4 [16]
0	0xbb715db7	-0.003682954
1	0xbcb9b257	-0.022668047
2	0x3c8c20db	0.01710551
3	0xbcc851a6	-0.024452996
4	0x3d31792c	0.04332845
5	0xbbb47711	-0.005507358
6	0x3d9a384b	0.07530268
7	0xbd18dd4b	-0.037320416
8	0xbbb0ff6a	-0.0054015415
9	0x3aef44f3	0.0018254801
10	0xbced203e	-0.028946038
11	0xbbc1d154	-0.0059148464
12	0xbb25415b	-0.0025215957
13	0x3c027df6	0.007964602
14	0x3d21ff41	0.03955007
15	0x3cb8eaa6	0.022572827

layer1_task.2.weight f4 [16]
0	0x3f860981	1.047165
1	0x3f80fa56	1.0076396
2	0x3f6ea03f	0.93213266
3	0x3f84edf3	1.0385116
4	0x3f7e56d3	0.99351233
5	0x3f791717	0.9730086
6	0x3f6b69ac	0.9195812
7	0x3f7cf76e	0.9881505
8	0x3f81b902	1.0134585
9	0x3f8341cf	1.0254458
10	0x3f814d87	1.0101784
11	0x3f830ead	1.0238854
12	0x3f7f3518	0.9969039
13	0x3f7b57e9	0.98181015
14	0x3f840acc	1.0315795
15	0x3f727297	0.947061

layer1_task.2.bias f4 [16]
0	0x3d780d82	0.060559757
1	0xbbe3727a	-0.006941137
2	0xbd943ec4	-0.07238534
3	0x3ce34890	0.027744561
4	0xbc0ae25f	-0.008476823
5	0xbce8a8fa	-0.028400887
6	0xbd8a9678	-0.06766981
7	0xbd09c8d4	-0.03363879
8	0x3ce431f6	0.027855854
9	0x3cace95e	0.021107372
10	0xbbfa3840	-0.0076361
11	0x3cce92b6	0.025216442
12	0x3c4ee8b5	0.012628724
13	0xbc8173eb	-0.015802344
14	0x3d46bda3	0.048520695
15	0xbd5cb31f	-0.05388176

layer1_task.2.running_mean f4 [16]
0	0x461a5087	9876.132
1	0x466f8be0	15330.969
2	0x44e496c9	1828.712
3	0x469cba78	20061.234
4	0xc6f3214c	-31120.648
5	0xc539e2e4	-2974.1807
6	0x4594e24a	4764.286
7	0xc601d09b	-8308.151
8	0x461791f4	9700.488
9	0xc4603d31	-896.9561
10	0xc3224cc8	-162.29993
11	0xc6628c30	-14499.047
12	0xc5e64483	-7368.564
13	0x450f315c	2291.085
14	0xc66719f2	-14790.486
15	0x458aeefe	4445.874

layer1_task.2.running_var f4 [16]
0	0x4c0a8aa8	3.6317856e+07
1	0x4cb7b01e	9.630539e+07
2	0x49ad49be	1.4195758e+06
3	0x4d1a747c	1.6195782e+08
4	0x4dae4daf	3.6554083e+08
5	0x4a3685c3	2.9904488e+06
6	0x4b00c9f3	8.440307e+06
7	0x4bc6f004	2.6075144e+07
8	0x4c0f93e2	3.7638024e+07
9	0x4891a9c7	298318.22
10	0x46101529	9221.29
11	0x4caf79a8	9.199955e+07
12	0x4b981ea4	1.9938632e+07
13	0x49dfe99a	1.8342912e+06
14	0x4c996cb2	8.043867e+07
15	0x4b04c33e	8.700734e+06

layer1_1vm.0.weight f4 [32, 40]
0	0xbcdaa194	-0.026688375
1	0x3ca75c6e	0.020429816
2	0xbeb1326e	-0.34608787
3	0xbe70e2f4	-0.23524076
4	0xbdf807e6	-0.121108815
5	0x3e59e71a	0.21279564
6	0x3d9373de	0.07199834
7	0xbe2f009a	-0.17090073
8	0xbe6ff9f7	-0.23435198
9	0xbdd374f3	-0.10325041
10	0x3e66eb65	0.22550733
11	0x3e775f4d	0.24157448
12	0xbd853478	-0.06504148
13	0xbdfef79d	-0.12449572
14	0x3cc239f0	0.023709267
15	0x3de03052	0.10946716
16	0xbda439d4	-0.08018842
17	0xbeb14fc7	-0.34631178
18	0xbe29da2f	-0.16587137
19	0xbe56ccac	-0.20976514
20	0x3e1a3026	0.1505743
21	0x3e8835dd	0.26603594
22	0xbb3c27a7	-0.0028710158
23	0xbe345414	-0.17610198
24	0x3cf8cc21	0.030370774
25	0xbe61e5c1	-0.220603
26	0x3da3ff89	0.08007724
27	0xbe2de194	-0.16980582
28	0xbe291dcb	-0.16515271
29	0x3e0fbb4f	0.14036296
30	0xbe175cd2	-0.14781502
31	0xbdfba1b1	-0.122866996
32	0x3d2d3d99	0.042295072
33	0xbe790a78	-0.243204
34	0x3e106601	0.14101411
35	0xbdfcea67	-0.12349396
36	0x3d0665e1	0.032812003
37	0xbdabfa64	-0.083973676
38	0x3dbeda73	0.0931901
39	0xbd13d073	-0.036087465
40	0x3e50f9ce	0.20407793
41	0x3d67006f	0.056396898
42	0x3dd5bb65	0.10436133
43	0x3e54a4e9	0.20766033
44	0x3baad806	0.0052137403
45	0x3db15be9	0.086601086
46	0xbdc48d80	-0.095973015
47	0x3e905db7	0.281965
48	0xbe417140	-0.18890858
49	0x3e1aab98	0.1510452
50	0x3d159d8f	0.036527213
51	0xbddcd3ba	-0.10782571
52	0xbdffdd60	-0.12493396
53	0xbd6d353b	-0.057912093
54	0xbd26ff57	-0.040770855
55	0xbb9480e2	-0.0045319656
56	0xbdc861bd	-0.09784267
57	0xbcd1a2a2	-0.025590245
58	0xbd12e2bb	-0.03586076
59	0x3e2d9a6a	0.16953436
60	0xbe2ba084	-0.1676045
61	0xbcf9f669	-0.030513005
62	0xbc7a4bca	-0.015276859
63	0x3e04d891	0.12973239
64	0x3e47fe0d	0.19530506
65	0x3d988a1f	0.074482195
66	0x3ead8ece	0.33898014
67	0x3e50733d	0.2035646
68	0xbba3d948	-0.005000267
69	0x3e21b8ce	0.15793154
70	0x3d05e113	0.03268535
71	0x3dc53087	0.096283965
72	0xbda32179	-0.07965369
73	0x3e96962f	0.29411456
74	0x3e8e9de2	0.2785483
75	0x3dbff6a8	0.09373218
76	0x3e6eada6	0.23308429
77	0x3b9c299c	0.0047657024
78	0xbe7f9c25	-0.24961908
79	0x3ce3a337	0.027787788
80	0xbd832a56	-0.06404559
81	0x3dae6c53	0.08516755
82	0xbcd9b947	-0.026577605
83	0x3dbc9d2f	0.09209668
84	0xbdaf4089	-0.08557231
85	0x3d3032dc	0.043017253
86	0x3b6a2086	0.0035724952
87	0xbdea4a36	-0.11439936
88	0xbe8fdd84	-0.2809869
89	0x3deaf426	0.11472349
90	0xbc013a1d	-0.00788739
91	0x3e20f463	0.15718226
92	0xbeba1eb0	-0.36351538
93	0xbe87481b	-0.264222
94	0xbea2e4b3	-0.3181511
95	0x3e1e9f44	0.15490443
96	0x3c85f209	0.016350763
97	0x3e184b0f	0.14872383
98	0x3ecc7a91	0.3993726
99	0x3d64397f	0.055718895
100	0xbd041820	-0.03224957
101	0x3d6f8eb1	0.05848569
102	0x3dce7904	0.10081676
103	0xbe195a00	-0.14975739
104	0x3c7dd923	0.015493664
105	0xbeb2f864	-0.34955132
106	0xbdb7eafa	-0.08980365
107	0xbeb7f3cc	-0.3592819
108	0xbd03e54b	-0.032201093
109	0x3cb6ac15	0.022298852
110	0xbe371776	-0.17880043
111	0xbe0d2654	-0.13784152
112	0x3d4805e6	0.04883375
113	0xbd8fad45	-0.070154704
114	0x3d8fc9df	0.07020926
115	0xbc97f0ba	-0.018547405
116	0x3e88e21f	0.26735017
117	0xbe8507f5	-0.25982633
118	0xbe4c63fd	-0.19960018
119	0xbe5e2796	-0.21694788
120	0x3dc4f7a3	0.096175455
121	0xbdd22526	-0.10260992
122	0xbe11d904	-0.14242941
123	0x3e8eb948	0.27875733
124	0xbd00aad2	-0.031412907
125	0xbb6c8424	-0.0036089504
126	0xbda44dd8	-0.0802266
127	0x3e85b1b9	0.26112154
128	0x3c4afaae	0.012388868
129	0x3e4cf6b8	0.2001599
130	0xbea96b37	-0.3308961
131	0x3d187fd5	0.037231285
132	0xbed1b9e6	-0.40962142
133	0xbb65ed75	-0.0035084162
134	0x3e147a5c	0.14499801
135	0xbd41edaa	-0.047345795
136	0xbd0e005c	-0.03466831
137	0xbe2299d5	-0.15878995
138	0xbd852fb7	-0.065032415
139	0x3e5599d9	0.2085947
140	0x3de322bd	0.1109061
141	0xbb93a577	-0.004505809
142	0xbe151418	-0.14558446
143	0x3e8ef522	0.27921396
144	0x3e73b1f1	0.23798348
145	0x3da69963	0.08134725
146	0xbe1266ad	-0.1429698
147	0x3cbdd947	0.023174895
148	0x3e1b92b8	0.15192688
149	0xbde981d5	-0.114017166
150	0x3dd651bc	0.10464808
151	0x3e5da612	0.21645382
152	0xbdb3f849	-0.08787591
153	0xbc97c0e7	-0.0185246
154	0x3df04400	0.1173172
155	0xbe1b201e	-0.1514897
156	0xbdf48860	-0.11940074
157	0xbd50f4c9	-0.051014695
158	0x3e3f04b7	0.18654142
159	0x3c97c6b4	0.018527366
160	0x3d573058	0.05253634
161	0x3db2ae9d	0.08724711
162	0xbe8020b4	-0.2502495
163	0xbdab4aa0	-0.08363843
164	0xbd608ce4	-0.054821864
165	0x3d62a3ec	0.05533211
166	0x3d8ea02d	0.06964145
167	0xbe0effac	-0.13964719
168	0xbdc22d76	-0.09481327
169	0xbce9881b	-0.028507283
170	0x3b032286	0.0020009591
171	0xbe05177c	-0.1299724
172	0xbd699dbf	-0.057035204
173	0xbe0113a9	-0.12605156
174	0x3c1eb777	0.009687296
175	0x3e2aa800	0.1666565
176	0xbce0220b	-0.027359983
177	0x3e533f83	0.20629697
178	0xbe1515d0	-0.14559102
179	0xbe1b8e40	-0.15190983
180	0x3ddb0d13	0.10695853
181	0xbdd0416b	-0.101687275
182	0x3e1ec2a3	0.15503936
183	0x3d5876f9	0.052847836
184	0x3d80b183	0.06283858
185	0x3d5f7f6e	0.054564886
186	0x3e125a3c	0.14292234
187	0x3dba4116	0.090944454
188	0x3ddc8f0a	0.1076947
189	0x3e4bf641	0.19918157
190	0x3e47ec82	0.19523814
191	0xbd89ffb1	-0.067382224
192	0xbebc829a	-0.3681839
193	0xbd0928f9	-0.03348634
194	0x3e1e0b0a	0.15433899
195	0x3e446666	0.19179687
196	0xbcaf7faa	-0.02142318
197	0xbde52698	-0.11189002
198	0x3dc6f632	0.09714927
199	0x3e430401	0.19044496
200	0xbe626c14	-0.22111541
201	0x3e6c64a2	0.23085263
202	0x3da7300f	0.08163463
203	0xbe052feb	-0.1300656
204	0x3d06bec4	0.032896772
205	0x3e479c92	0.1949332
206	0xbe0709a3	-0.1318727
207	0x3da21961	0.07914997
208	0xbd0c074b	-0.034186643
209	0xbe295c4c	-0.16539115
210	0xbe7bda0d	-0.24594899
211	0xbea0fa86	-0.31441134
212	0x3d88fd31	0.066889174
213	0x3e22ab18	0.1588558
214	0x3a66f3f9	0.00088101585
215	0xbc47a027	-0.012184179
216	0xbde8d4f2	-0.11368741
217	0xbce5e2b5	-0.028062204
218	0x3d3204d8	0.04346165
219	0x3d83567f	0.06412982
220	0xbda772b6	-0.08176176
221	0x3d89d45f	0.0672996
222	0xbe2d2ac6	-0.16910848
223	0xbe051488	-0.12996113
224	0xbd48f4a8	-0.049061447
225	0xbd8dd4b7	-0.06925338
226	0x3e16157f	0.14656638
227	0xbd9a36ba	-0.075299695
228	0xbd8c4d6a	-0.06850703
229	0xbe26096e	-0.16214535
230	0xbebad0a7	-0.36487314
231	0xbcbe6f0a	-0.023246307
232	0x3dae6e5d	0.08517144
233	0x3e4ef54c	0.20210761
234	0x3e06c2f2	0.13160303
235	0xbe371a8e	-0.17881224
236	0x3e2936a9	0.16524757
237	0x3e1f32ac	0.15546674
238	0xbe170d5a	-0.14751187
239	0xbd7b42c4	-0.06134297
240	0xbe2c9bd5	-0.1685632
241	0x3e0c7126	0.13715038
242	0x3e12bec9	0.14330591
243	0x3d6bbd79	0.057553742
244	0x3df5b123	0.11996677
245	0x3dbe5a54	0.092945725
246	0x3d1ac7f5	0.03778835
247	0xbeb875f3	-0.36027488
248	0xbdb69585	-0.08915237
249	0x3de6ef14	0.11276069
250	0x3d84030a	0.06445892
251	0x3e9a6630	0.30156088
252	0x3e8fbaf3	0.28072318
253	0x3e6ed855	0.23324712
254	0x3e7ee4b9	0.24891938
255	0x3cb1768b	0.021662971

layer1_1vm.0.bias f4 [32]
0	0x3c6fd409	0.014637955
1	0x3cd54363	0.026033109
2	0x3a84fa7a	0.0010145449
3	0xbad0a38e	-0.0015917884
4	0x3c8b4ab2	0.017003391
5	0xbd84fc37	-0.06493419
6	0x3ccaae9a	0.02474146
7	0x3bdcefea	0.006742467
8	0xbb9daa05	-0.0048115277
9	0xbd0eb0bf	-0.034836527
10	0x3cb8b6c1	0.022548081
11	0xbcbf9b63	-0.023389524
12	0xbb95c04f	-0.004570044
13	0x3d0c1511	0.034199778
14	0x3c486866	0.012231922
15	0xbccab7e5	-0.02474589
16	0xbd3342b6	-0.043764792
17	0xbb3d6a78	-0.0028902572
18	0x3d17e108	0.03707984
19	0xbd19512c	-0.037430927
20	0x3c6774d2	0.014126973
21	0xbc368d91	-0.0111421505
22	0xbca01171	-0.019539567
23	0x3c3d7812	0.0115642715
24	0x3d140acf	0.03614312
25	0x3ce29a32	0.027661417
26	0x3c933b4d	0.017972613
27	0x3d350a96	0.04419955
28	0x3d472bcf	0.048625764
29	0xbccc19b0	-0.024914593
30	0x3d0e6eed	0.034773756
31	0xbd316873	-0.0433125

layer1_1vm.2.weight f4 [32]
0	0x3f8003ec	1.0001197
1	0x3f77a0da	0.96729815
2	0x3f7bc242	0.9834329
3	0x3f864022	1.0488322
4	0x3f7d4552	0.989339
5	0x3f85787f	1.0427397
6	0x3f81a2a9	1.0127765
7	0x3f857c23	1.0428509
8	0x3f7b2733	0.9810669
9	0x3f81f186	1.0151832
10	0x3f80a49f	1.0050238
11	0x3f829bc2	1.0203784
12	0x3f7b6fbc	0.9821737
13	0x3f7cb910	0.9871988
14	0x3f837f43	1.0273212
15	0x3f7a75bf	0.97835916
16	0x3f845aae	1.0340173
17	0x3f7f9bbd	0.9984701
18	0x3f76aa1f	0.96353334
19	0x3f8310fd	1.023956
20	0x3f819f2a	1.0126698
21	0x3f7eb748	0.99498415
22	0x3f8079ee	1.003721
23	0x3f7d84f5	0.99031
24	0x3f78221e	0.9692706
25	0x3f7ab371	0.97930056
26	0x3f8705d0	1.0548649
27	0x3f7dac92	0.99091446
28	0x3f7aa605	0.97909576
29	0x3f82f2be	1.0230329
30	0x3f7a3552	0.9773761
31	0x3f82abd3	1.0208687

layer1_1vm.2.bias f4 [32]
0	0x3c892e82	0.01674581
1	0xbd01ce9d	-0.031691182
2	0xbc7300e7	-0.014831758
3	0x3ccca8fa	0.024982918
4	0xbc1ffb3d	-0.00976449
5	0x3cbced65	0.023062417
6	0x3ca81c3d	0.020521278
7	0x3ce60a0e	0.028080966
8	0xbc5fdb32	-0.0136631
9	0x3c9c2977	0.01906274
10	0x3c43ebcc	0.011958074
11	0x3cc9c758	0.024631187
12	0xbc021b21	-0.007941038
13	0x3c8fb5a0	0.01754266
14	0x3c8d7bc3	0.017270928
15	0xbd21e276	-0.03952261
16	0x3c84b7ff	0.016201017
17	0xbb807874	-0.003920609
18	0xbd1653d3	-0.036701035
19	0x3c0ad594	0.008473773
20	0x3c576819	0.013147377
21	0xbbf4c91b	-0.0074702627
22	0x3ba44f3e	0.005014329
23	0xbc183fcb	-0.009292553
24	0xbc5ebd4c	-0.013594937
25	0xbb35813c	-0.0027695438
26	0x3d69a758	0.057044357
27	0x3c50d76c	0.012746673
28	0x3b573a5d	0.0032841184
29	0x3c66dcf7	0.014090768
30	0x3a89b298	0.0010505496
31	0x3caaf54b	0.020868918

layer1_1vm.2.running_mean f4 [32]
0	0xc58373a7	-4206.4565
1	0x45dfb1e1	7158.235
2	0xc577d06a	-3965.026
3	0x450197f3	2073.4968
4	0x45358f1f	2904.945
5	0xc54686ae	-3176.4175
6	0x458dab16	4533.3857
7	0x4240d327	48.206203
8	0xc5b0c475	-5656.557
9	0xc5ba10f5	-5954.1196
10	0x4572ab4c	3882.706
11	0xc5a278bb	-5199.0913
12	0x443bffa8	751.9946
13	0x45c2c24f	6232.2886
14	0x461c3a1d	9998.528
15	0xc6073ef3	-8655.737
16	0x43342ba0	180.17041
17	0xc561317a	-3603.0923
18	0x45df8199	7152.1997
19	0xc5d7a8e1	-6901.11
20	0x45b0c64f	5656.7886
21	0xc5a69854	-5331.041
22	0xc60dc728	-9073.789
23	0xc535aa30	-2906.6367
24	0x45934a74	4713.3066
25	0x45c0e9ee	6173.241
26	0x459f57d1	5098.977
27	0x4606a454	8617.082
28	0xc36f4993	-239.2874
29	0x44ef9621	1916.6915
30	0x45ddd3ce	7098.4756
31	0xc6069e82	-8615.627

layer1_1vm.2.running_var f4 [32]
0	0x4b1022dd	9.446109e+06
1	0x4bad2ce8	2.2698448e+07
2	0x4a88a4e4	4.477554e+06
3	0x4a4aeef8	3.324862e+06
4	0x4a0b5969	2.2830982e+06
5	0x4a4bf617	3.3417018e+06
6	0x4abc5048	6.17066e+06
7	0x480bf9fd	143335.95
8	0x4b1d87a6	1.0323878e+07
9	0x4affbddc	8.380142e+06
10	0x4a5d20ea	3.6229705e+06
11	0x4afc50cc	8.267878e+06
12	0x4aa8be88	5.529412e+06
13	0x4b57c50a	1.4140682e+07
14	0x4bd1e15c	2.7509432e+07
15	0x4bb1267f	2.3219454e+07
16	0x4b02424c	8.536652e+06
17	0x4aca6221	6.6316965e+06
18	0x4b82f404	1.7164296e+07
19	0x4bbc7146	2.4699532e+07
20	0x4b16b540	9.8768e+06
21	0x4abda887	6.2147235e+06
22	0x4baaa006	2.2364172e+07
23	0x4a2ad67d	2.7990072e+06
24	0x4ad24e5a	6.891309e+06
25	0x4b997395	2.0113194e+07
26	0x4b64d270	1.499608e+07
27	0x4bb4eeea	2.3715284e+07
28	0x4abd8d48	6.211236e+06
29	0x49a16641	1.3221841e+06
30	0x4b31f866	1.1663462e+07
31	0x4b87ee5a	1.7816756e+07

layer1_2vm.0.weight f4 [16, 32]
0	0x3e7e4034	0.24829179
1	0xbc186355	-0.009301026
2	0x3db89efe	0.090147
3	0xbd8fe78b	-0.07026585
4	0x3e775ede	0.24157283
5	0x3e96d7f4	0.29461634
6	0x3d6ea4a6	0.05826249
7	0x3cdcd70a	0.026958007
8	0x3e2b0b7d	0.16703601
9	0xbe39119f	-0.18073128
10	0xbce605c8	-0.028078929
11	0xbe8152eb	-0.25258574
12	0xbdb8b2aa	-0.090184525
13	0x3d850560	0.06495166
14	0x3dd6e23c	0.104923695
15	0xbe6389cf	-0.22220539
16	0xbd7a74c2	-0.061146505
17	0x3eba1037	0.36340496
18	0x3e05f815	0.13082917
19	0xbe7c5cf7	-0.24644838
20	0x3e9e6733	0.3093811
21	0x3c89760c	0.016779922
22	0x3e8c7779	0.274349
23	0x3df693e5	0.120399274
24	0x3e1e31bd	0.15448661
25	0xbd9005db	-0.07032367
26	0xbefb5de2	-0.49095064
27	0xbe4578e0	-0.19284391
28	0x3d882b12	0.0664884
29	0xbe8c3d0b	-0.27390322
30	0x3e22d6e0	0.15902281
31	0x3ef26923	0.47345838
32	0x3e7119b5	0.23544963
33	0x3d9f9573	0.07792177
34	0x3ee83299	0.45351103
35	0x3de8c698	0.11366004
36	0x3dcc5977	0.099780016
37	0xbe391655	-0.18074925
38	0x3e43851d	0.19093747
39	0x3d68a62e	0.056799106
40	0xbd63be83	-0.055601608
41	0x3e99800f	0.29980513
42	0xbe24ad45	-0.16081722
43	0x3e310e88	0.172907
44	0x3d14a950	0.03629428
45	0x3d55dc74	0.052212194
46	0xbe607202	-0.2191849
47	0xbdae2e94	-0.08504978
48	0xbe212935	-0.15738375
49	0x3e838467	0.25686952
50	0x3c061102	0.008182766
51	0x3dcc36c3	0.099713825
52	0x3e2b9e52	0.16759613
53	0xbd1cea62	-0.038309462
54	0xbd8ab647	-0.06773048
55	0xbd92e437	-0.07172435
56	0xbe27abf2	-0.16374186
57	0xbdf81604	-0.12113574
58	0x3e97f97c	0.2968253
59	0x3de507d5	0.111831345
60	0xbe2dd352	-0.16975144
61	0xbf06c2e4	-0.5264113
62	0xbe3c88be	-0.18411538
63	0x3cd924f4	0.026506878
64	0x3e014c0b	0.12626664
65	0x3e573482	0.21016124
66	0xbe218914	-0.15774947
67	0x3d907c66	0.07054977
68	0x3e8e4a94	0.27791274
69	0xbe4b4763	-0.1985145
70	0xbe1cab70	-0.15299773
71	0xbe26e78e	-0.16299269
72	0xbc015849	-0.007894584
73	0xbea2bc33	-0.3178421
74	0xbe58a016	-0.21154818
75	0xbd3d015d	-0.04614388
76	0x3ea096ce	0.31365055
77	0x3dd3d1e5	0.103427686
78	0xbe6deaad	-0.23234053
79	0xbe4aa632	-0.19789961
80	0xbdd6a2f6	-0.10480301
81	0xbd239d8f	-0.03994518
82	0xbdeb270e	-0.114820585
83	0x3e4522e3	0.1925159
84	0x3eb84fbd	0.35998335
85	0xbdf81b0d	-0.121145345
86	0x3d81267b	0.06306168
87	0x3d883da3	0.06652381
88	0x3e9d02a2	0.3066607
89	0x3eca4f9f	0.3951387
90	0x3e52c629	0.20583405
91	0xbe9573d1	-0.29189923
92	0x3dce7970	0.10081756
93	0x3e3c8ea5	0.1841379
94	0xbe1bd6fd	-0.1521873
95	0xbc20f2bc	-0.009823497
96	0xbd84f005	-0.064910926
97	0x3df2e84f	0.118607156
98	0xbe12403f	-0.1428232
99	0x3c52f0c8	0.01287479
100	0x3bc2f071	0.005949073
101	0xbdf9ab07	-0.12190824
102	0x3e0edf31	0.13952328
103	0x3dc2248a	0.094796255
104	0x3e05501d	0.13018842
105	0x3e624847	0.22097884
106	0xbd1acdfe	-0.037794106
107	0x3e6d84bc	0.23195165
108	0x3e4e1f55	0.2012914
109	0xbdec1d91	-0.11529077
110	0xbeeba438	-0.46023726
111	0xbcd310d9	-0.02576487
112	0xbcc4315a	-0.023949314
113	0x3c92b453	0.01790825
114	0x3e4aac79	0.19792356
115	0x3dbd5030	0.0924381
116	0xbe8639c9	-0.26215962
117	0xbdf162cb	-0.117864214
118	0x3e0c1410	0.13679528
119	0xbd4fa0e1	-0.050690535
120	0xbc6b6667	-0.014367676
121	0x3be47bd9	0.0069727716
122	0xbe5484d0	-0.20753789
123	0xbdf3cdc1	-0.11904479
124	0x3e8bf16a	0.27332622
125	0xbe5e4e7e	-0.2170963
126	0x3eaf9838	0.3429582
127	0xbe6a58c9	-0.22885431
128	0x3e479a29	0.19492401
129	0x3e803ee3	0.2504798
130	0xbeadc204	-0.33937085
131	0x3ccbcd86	0.024878275
132	0x3d1001c7	0.035157945
133	0xbe9b613b	-0.30347618
134	0x3d84b12f	0.064791076
135	0xbdc3e4b8	-0.09565109
136	0xbe0db6df	-0.13839291
137	0xbd27f754	-0.041007355
138	0xbc25edd6	-0.010127505
139	0xbd8b1a71	-0.06792153
140	0x3e224b81	0.15849115
141	0x3d88d1b2	0.06680621
142	0x3e7d7cde	0.24754664
143	0xbeb29afc	-0.3488387
144	0xbe2e1f8d	-0.17004223
145	0xbd86db4f	-0.065847985
146	0xbe05f75f	-0.13082646
147	0x3d22f06c	0.039780065
148	0xbe6e5f01	-0.23278429
149	0xbe17b6fd	-0.14815898
150	0xbda66741	-0.08125163
151	0x3e58fa82	0.21189311
152	0x3e54f9e5	0.20798452
153	0xbbcfc863	-0.0063410266
154	0x3da0c59b	0.0785019
155	0xbe40f3aa	-0.1884295
156	0xbe5be682	-0.2147465
157	0xbd30e619	-0.04318819
158	0x3e16b8f4	0.14718992
159	0xbedb25f1	-0.42802384
160	0xbd4ff2f4	-0.050768808
161	0xbd8c91fe	-0.06863783
162	0xbcf1b335	-0.029504398
163	0xbe91e247	-0.28492948
164	0x3ed5568c	0.41667593
165	0x3e0f168f	0.13973449
166	0x3db7e408	0.089790404
167	0x3d6d4ae7	0.05793276
168	0x3e14cda1	0.14531566
169	0x3e81d2d6	0.25356168
170	0xbe411a6a	-0.18857732
171	0x3ea5b332	0.32363278
172	0x3ebf2851	0.37335446
173	0xbe03d51f	-0.12874268
174	0x3e66b82b	0.22531192
175	0x3d1b55de	0.037923686
176	0xbe015557	-0.12630211
177	0xbdfce25f	-0.12347864
178	0x3e8401b6	0.25782555
179	0xbe6f19b2	-0.23349646
180	0xbd4106d1	-0.04712564
181	0xbaff2235	-0.001946515
182	0x3d007757	0.03136381
183	0x3ea613a4	0.3243686
184	0xbe953e9f	-0.2914934
185	0xbee83e1c	-0.45359886
186	0xbec1d63c	-0.3785876
187	0xbe90afe0	-0.28259182
188	0x3deb1519	0.114786334
189	0xbce9d7cf	-0.028545288
190	0x3e86e78b	0.26348528
191	0x3e9af499	0.30264738
192	0x3e34183b	0.17587368
193	0x3e2275ab	0.158652
194	0x3e6bf860	0.23043966
195	0x3e4a1016	0.19732699
196	0x3cb2e37b	0.021836987
197	0xbe88819d	-0.26661387
198	0x3e119b80	0.14219475
199	0xbe1341d6	-0.14380583
200	0xbe1312ba	-0.14362612
201	0x3dc4b03f	0.09603929
202	0x3cb4b374	0.022058226
203	0x3db71388	0.08939272
204	0xbdc03a6e	-0.093861446
205	0x3e6d3e93	0.23168401
206	0x3e1145f4	0.14186841
207	0xbe21d11c	-0.15802425
208	0x3ea2b9dc	0.31782424
209	0xbde0e35e	-0.10980867
210	0xbdb64338	-0.0889954
211	0x3f261bb3	0.64886016
212	0xbe9c6fea	-0.30554134
213	0x3e0407b2	0.1289356
214	0x3dc541b1	0.0963167
215	0xbd982dde	-0.074306235
216	0x3cc7acbd	0.02437436
217	0x3de79356	0.11307399
218	0xbe48e841	-0.19619848
219	0xbd80c320	-0.06287217
220	0x3e8bc323	0.27297315
221	0x3c90262d	0.017596329
222	0x3d7bb6e1	0.061453704
223	0x3dd66f1f	0.104704134
224	0xbb9a5085	-0.0047093057
225	0x3e21ff96	0.15820155
226	0x3e3ced64	0.18449932
227	0xbe4a8313	-0.19776563
228	0x3d40c9ab	0.047067326
229	0x3e1dd9f3	0.15415172
230	0xbe7a9c61	-0.24473716
231	0xbe0b4f36	-0.13604435
232	0x3e6b9a92	0.23008183
233	0xbda82293	-0.082097195
234	0xbdfa4e8d	-0.122220136
235	0x3d0a9f43	0.03384329
236	0xbdd1a0fa	-0.10235782
237	0xbdfce040	-0.1234746
238	0x3d12c8a5	0.03583588
239	0x3ebb2b66	0.36556548
240	0x3d5e4bad	0.05427139
241	0x3e370dda	0.17876378
242	0xbc8c015c	-0.017090492
243	0xbe4a27ac	-0.19741696
244	0xbd6a682c	-0.057228252
245	0xbd3e3f7e	-0.04644727
246	0xbeb4bb90	-0.3529935
247	0xbe8d7f1e	-0.27636045
248	0x3ea1c484	0.31595242
249	0xbe5d90d7	-0.21637283
250	0x3cb4de07	0.022078527
251	0x3e19e70c	0.15029544
252	0xbe6071e5	-0.21918447
253	0x3e6c8e3b	0.23101132
254	0xbd99dd45	-0.07512907
255	0x3e869174	0.26282847

layer1_2vm.0.bias f4 [16]
0	0x3cb8231b	0.022477677
1	0x3c22f4ca	0.009946058
2	0x3c6620a5	0.014045869
3	0x3cc72f55	0.024314562
4	0xbc9aea8a	-0.018910665
5	0xbc257474	-0.010098565
6	0xbb4e5492	-0.0031483513
7	0xbd07571d	-0.033042062
8	0xbd14efb3	-0.036361407
9	0xbb9b3278	-0.004736241
10	0xbc577ef3	-0.013152826
11	0xbc9066d6	-0.017627161
12	0xbc2c5a1a	-0.010519529
13	0x3af220eb	0.0018472945
14	0x3c068fb6	0.008212974
15	0xbc3748ef	-0.011186822

layer1_2vm.2.weight f4 [16]
0	0x3f7ac892	0.97962296
1	0x3f7c6de9	0.9860521
2	0x3f7e6a1b	0.99380654
3	0x3f7bccd0	0.98359394
4	0x3f80c456	1.0059917
5	0x3f7c0384	0.98442864
6	0x3f801949	1.0007716
7	0x3f83aab3	1.0286468
8	0x3f846d47	1.0345849
9	0x3f8029a3	1.0012707
10	0x3f8798d8	1.0593519
11	0x3f7d5482	0.98957074
12	0x3f7bdfad	0.9838818
13	0x3f7d6b3e	0.98991764
14	0x3f80719a	1.0034668
15	0x3f7dc6f2	0.9913169

layer1_2vm.2.bias f4 [16]
0	0x3c4356de	0.011922566
1	0xb8432f15	-4.653547e-05
2	0xbbbc558c	-0.0057475027
3	0xbad6ceef	-0.0016388575
4	0x3c2b07bb	0.010438855
5	0xbc932832	-0.017963503
6	0xbb85377b	-0.0040654517
7	0x3d2938ba	0.041313864
8	0x3d1e77ed	0.03868859
9	0xbc020db6	-0.007937839
10	0x3d13e043	0.036102545
11	0xbd15441a	-0.0364419
12	0x3a1353a6	0.00056200696
13	0xbce73748	-0.028224602
14	0x3c4b8ec9	0.012424179
15	0x3b5ac5bf	0.0033382026

layer1_2vm.2.running_mean f4 [16]
0	0x3ef4a2aa	0.47780353
1	0x3e9db639	0.30803087
2	0x3e609df6	0.21935257
3	0xbca978f7	-0.020687563
4	0xbf0b1887	-0.543343
5	0x3e1e5bef	0.15464757
6	0x3f25f4c9	0.6482664
7	0xbdba54ca	-0.090982035
8	0xbf6afe73	-0.9179451
9	0xbef94fad	-0.486936
10	0x3f04cf7e	0.5187911
11	0x3ea96a26	0.33088797
12	0xbf57a57e	-0.84236896
13	0xbc885aa6	-0.016644787
14	0xbeaf3e68	-0.342273
15	0x3d0ebfd0	0.034850895

layer1_2vm.2.running_var f4 [16]
0	0x3f3c9bf7	0.73675483
1	0x3f6e2c2e	0.9303616
2	0x3ef81f46	0.4846136
3	0x3e88c7e6	0.2671501
4	0x3f2e5fc8	0.681149
5	0x3f1f17e6	0.6214584
6	0x3f29b603	0.6629335
7	0x3f02384c	0.5086715
8	0x3f86c4b7	1.0528783
9	0x3f027d49	0.5097242
10	0x3f1e0083	0.6171953
11	0x3e7c568b	0.24642389
12	0x3fa19c80	1.2625885
13	0x3e852cbf	0.260107
14	0x3ef4f0ee	0.47840065
15	0x3ed7570c	0.420586

layer2.0.weight f4 [16, 32]
0	0xbe331099	-0.174868
1	0x3f01b1c0	0.5066185
2	0xbc3da603	-0.011575225
3	0x3de50784	0.11183074
4	0x3e1b64d3	0.1517518
5	0xbdb1cba2	-0.08681418
6	0x3e4056b7	0.18783079
7	0x3e594e8b	0.21221368
8	0x3d02d2d5	0.031939346
9	0x3e869cad	0.2629141
10	0x3e4e18d0	0.20126653
11	0x3eb3ff9c	0.35155952
12	0xbeda4219	-0.42628554
13	0xbbf65621	-0.0075175916
14	0xbdf7d746	-0.12101607
15	0x3e8cd555	0.2750651
16	0xbc03ee7d	-0.0080524655
17	0xbe1519a0	-0.14560556
18	0x3d5c29cd	0.0537508
19	0x3e642d36	0.22282872
20	0x3d984135	0.07434312
21	0xbd674d12	-0.056469984
22	0x3e15f3cf	0.14643787
23	0x3dc4e322	0.09613635
24	0xbd63d6be	-0.055624716
25	0x3d11efe4	0.03562917
26	0xbed70b42	-0.42000777
27	0x3e9f0c66	0.31064147
28	0xbe4fa964	-0.20279461
29	0x3e85a6da	0.2610386
30	0xbe351500	-0.17683792
31	0x3d9937d5	0.07481352
32	0x3d1e41c7	0.03863695
33	0x3e808cd7	0.25107452
34	0x3e11f2d7	0.14252792
35	0x3e9b30f0	0.30310774
36	0x3e4897b8	0.19589126
37	0x3d7aa826	0.061195515
38	0xbdfb9bb8	-0.1228556
39	0x3d89e579	0.067332216
40	0x3e27cbb7	0.16386305
41	0xbd863a2f	-0.065540664
42	0xbdf24210	-0.11829007
43	0xbcb7d305	-0.02243949
44	0xbdf99cb8	-0.12188095
45	0x3c1ae8fc	0.009454962
46	0x3ed8ecab	0.42368063
47	0xbd0f53bb	-0.03499196
48	0xbeab596e	-0.33466667
49	0x3e800bfd	0.25009146
50	0x3e2a045b	0.16603224
51	0xbd049b88	-0.03237489
52	0x3eb78a44	0.35847676
53	0x3dcb9398	0.09940261
54	0xbd29713a	-0.041367747
55	0x3db6eab5	0.089314856
56	0xbf157c97	-0.58393234
57	0x3dcf7e75	0.10131542
58	0xbda32eb6	-0.07967894
59	0x3e4644b1	0.19362141
60	0xbcad9cdb	-0.021192959
61	0xbe0f28bd	-0.13980384
62	0xbd4d7727	-0.05016246
63	0xbde0e4c1	-0.10981131
64	0xbea8e0cb	-0.32984003
65	0x3e98b6c1	0.2982693
66	0x3e457102	0.1928139
67	0xbe3cca0c	-0.1843645
68	0xbd911750	-0.07084525
69	0x3e08cf73	0.13360386
70	0xba009f40	-0.00049065426
71	0xbe2f3180	-0.17108727
72	0xbee877ef	-0.45404002
73	0x3d1fde4c	0.03903036
74	0xbdf9bb8a	-0.12193973
75	0x3e8089a8	0.25105023
76	0x3e5b0828	0.2138983
77	0xbd8bb847	-0.068222575
78	0x3d850c8e	0.06496535
79	0x3eb42f32	0.35192257
80	0x3e8dda1e	0.27705473
81	0xbd009dd4	-0.031400517
82	0xbdc56840	-0.09639025
83	0x3f225e09	0.63424736
84	0xbebfee02	-0.37486273
85	0x3d93680c	0.0719758
86	0x3de418ab	0.111375175
87	0x3d31983a	0.043358065
88	0xbe217d9f	-0.15770577
89	0x3e1407c2	0.14456084
90	0x3e03760d	0.12838002
91	0x3ca99aec	0.020703755
92	0xbe2f0f36	-0.17095646
93	0xbba1b4fa	-0.004934904
94	0x3e248bed	0.16069002
95	0x3dfc40c2	0.12317039
96	0xbd0dc7ea	-0.03461448
97	0x3dd59d6c	0.104304165
98	0xbde2b77f	-0.11070155
99	0xbdaad118	-0.08340663
100	0x3e0b3de3	0.13597827
101	0x3ec5f6f2	0.38664967
102	0xbed8b260	-0.4232359
103	0xbe5be71c	-0.2147488
104	0x3e39adea	0.18132749
105	0xbe9db291	-0.30800298
106	0xbe8b0665	-0.27153316
107	0xbeca8b67	-0.3955948
108	0xbee15809	-0.44012478
109	0x3d02798b	0.031854194
110	0x3d973a2e	0.07384144
111	0x3e70706a	0.23480383
112	0xbd903bbb	-0.07042643
113	0x3e258473	0.16163807
114	0xbe2b313a	-0.16717997
115	0xbe1261e7	-0.1429516
116	0xbd8b40b9	-0.06799454
117	0xbddcaeed	-0.10775552
118	0x3b8ef425	0.0043626004
119	0x3cbe5eee	0.023238625
120	0xbea62df8	-0.32456946
121	0xbda3f93c	-0.08006522
122	0xbdc6d4b0	-0.09708536
123	0xbd48e624	-0.049047604
124	0xbd729ce5	-0.059231658
125	0xbdbfa7a1	-0.093581446
126	0xbd6e5adc	-0.05819212
127	0x3e70c040	0.23510838
128	0x3e1d4128	0.15356886
129	0xbeab6bdd	-0.3348073
130	0xbd020b58	-0.0317491
131	0xbed34e26	-0.4127056
132	0xbdc5221e	-0.09625648
133	0xbef5d4ca	-0.48013908
134	0x3e74f0e3	0.23920016
135	0xbe28ced3	-0.16485147
136	0xbe8ccd72	-0.27500492
137	0xbec8c935	-0.3921601
138	0x3ded61d2	0.11590923
139	0x3d8ffdc2	0.07030822
140	0x3e4dae15	0.20085938
141	0xbd968529	-0.07349617
142	0x3e1a0e63	0.1504455
143	0xbe302763	-0.17202525
144	0xbd604860	-0.054756522
145	0xbeb017b5	-0.34393087
146	0x3ea9ae25	0.33140674
147	0xbdfeda81	-0.1244402
148	0xbdd52df7	-0.10409158
149	0xbea55f6b	-0.3229936
150	0xbdeb1307	-0.114782386
151	0x3de67b76	0.11254017
152	0xbeaa0b13	-0.33211574
153	0x3e9bcc35	0.30429235
154	0xbea7f695	-0.32805315
155	0xbe54fc3e	-0.20799348
156	0xbdcc9ed3	-0.09991231
157	0xbd8d500b	-0.069000326
158	0x3e7ed879	0.24887265
159	0x3d908f6e	0.07058607
160	0xbde6c005	-0.112670936
161	0xbe0d0e58	-0.13775003
162	0xbe1f5e10	-0.15563226
163	0xbaf5b8cf	-0.0018747094
164	0x3e7c57a8	0.24642813
165	0x3c1854ea	0.009297589
166	0xbf00fa9d	-0.50382406
167	0xbe41b6c0	-0.1891737
168	0xbe70a445	-0.23500164
169	0xbdc96be4	-0.09835032
170	0xbe31e2a2	-0.1737161
171	0xbe04b2a7	-0.12958775
172	0x3e349990	0.17636704
173	0xbe04a868	-0.12954867
174	0x3eaffa32	0.3437057
175	0xbdb20ad8	-0.086934745
176	0x3c9b9209	0.018990533
177	0x3e7661e1	0.24060775
178	0x3d3143b4	0.043277457
179	0xbea643c2	-0.3247357
180	0xbe7f3865	-0.24923857
181	0xbe5e7ff8	-0.21728504
182	0x3d70e969	0.058816347
183	0x3e889049	0.2667258
184	0xbb831ac8	-0.0040009953
185	0xbbcf35f8	-0.0063235722
186	0xbe474182	-0.19458583
187	0xbd21c625	-0.039495606
188	0xbe88bdce	-0.2670731
189	0x3d988aeb	0.074483715
190	0x3df15210	0.1178323
191	0xbe98ac06	-0.29818743
192	0xbe0f8d93	-0.1401885
193	0xbde5532e	-0.11197506
194	0x3e2134de	0.15742823
195	0xbea70259	-0.3261898
196	0x3e935884	0.2877847
197	0x3d361fd2	0.04446394
198	0x3cf05570	0.029337615
199	0xbde77631	-0.1130184
200	0xbe074f52	-0.13213852
201	0xbe30a9d8	-0.1725229
202	0x3b70406b	0.003665949
203	0x3d15c66c	0.036566183
204	0xbe24fda4	-0.16112381
205	0xbc8b2bd5	-0.016988674
206	0x3e0646ed	0.13112994
207	0x3e2c510d	0.16827793
208	0xbe2af5c7	-0.16695319
209	0xbe96dfd6	-0.29467648
210	0xbd84b68b	-0.0648013
211	0xbe6e9c28	-0.23301756
212	0xbe377deb	-0.17919128
213	0xbde73778	-0.11289877
214	0x3e185e8e	0.1487982
215	0xbd225713	-0.03963382
216	0xbe11cb5e	-0.14237735
217	0xbe6b4f74	-0.22979528
218	0x3dfd4421	0.1236651
219	0x3d595368	0.053058058
220	0xbdb14e1b	-0.086574756
221	0x3eb528b6	0.35382622
222	0xbdc10538	-0.094248235
223	0x3d4c3e00	0.049863815
224	0xbe1cb6f7	-0.1530417
225	0xbea790ae	-0.3272757
226	0xbe93e3cc	-0.28884733
227	0xbeabafcd	-0.33532563
228	0xbe0da697	-0.1383308
229	0xbd655b22	-0.055995114
230	0xbddc46b0	-0.1075567
231	0x3d901b7b	0.070364915
232	0xbef88690	-0.48540163
233	0x3dd3142c	0.10306582
234	0x3e009e0b	0.12560289
235	0x3dab97e7	0.083785824
236	0xbddc4097	-0.10754507
237	0x3e152300	0.14564133
238	0x3e2f2c6f	0.17106794
239	0xbcfa04a9	-0.0305198
240	0xbe592f0d	-0.21209355
241	0xbe6609bd	-0.22464652
242	0xbee7b649	-0.4525626
243	0xbe211b6e	-0.1573312
244	0xbd875551	-0.0660807
245	0x3c241722	0.010015281
246	0x3d21fa46	0.03954532
247	0xbe3c6c25	-0.18400629
248	0x3d665af1	0.056239072
249	0xbe1b5dec	-0.15172547
250	0xbd35f17b	-0.044419747
251	0x3df9144e	0.12162076
252	0x3e8d25e3	0.27567968
253	0xbda32221	-0.07965494
254	0xbe2dbbd0	-0.16966176
255	0xbec03329	-0.37539032

layer2.0.bias f4 [16]
0	0xbd493a76	-0.04912802
1	0x3dd259f1	0.10271061
2	0xbbff84ae	-0.007797799
3	0xbd214182	-0.039369114
4	0xbce70a2d	-0.028203094
5	0x3c952e3d	0.018210525
6	0xbd22228a	-0.03958372
7	0x3c16c0c8	0.009201236
8	0xbc6f1bae	-0.014594002
9	0xbc4aad38	-0.0123704
10	0xbd771825	-0.06032576
11	0xb9cda90c	-0.00039226597
12	0x3d4dd519	0.050252054
13	0xbcf73464	-0.030176349
14	0x3cc950c0	0.024574637
15	0xbbbd7ee8	-0.0057829507

layer2.2.weight f4 [16]
0	0x3f768948	0.96303225
1	0x3f8f4d24	1.1195416
2	0x3f7ba1b9	0.98293644
3	0x3f79a6b7	0.9752001
4	0x3f9197a2	1.13744
5	0x3f721ae4	0.9457228
6	0x3f90dea2	1.1317942
7	0x3f7a0ebf	0.9767875
8	0x3f748e2d	0.95529443
9	0x3f804c2c	1.0023246
10	0x3f656b62	0.8961698
11	0x3f87a32e	1.0596673
12	0x3f88b9c9	1.0681697
13	0x3f6f9a9f	0.9359531
14	0x3f77cc2d	0.9679592
15	0x3f70b89c	0.9403169

layer2.2.bias f4 [16]
0	0xbd70d28a	-0.058794536
1	0x3e006fc5	0.12542637
2	0xbcd95471	-0.026529523
3	0xbc5e9b5b	-0.013586844
4	0x3e182d15	0.14860947
5	0xbd85d479	-0.065346666
6	0x3e17d237	0.14826284
7	0xbd1b3925	-0.037896294
8	0xbd684f4f	-0.05671626
9	0x3c8d41e7	0.017243339
10	0xbde34848	-0.11097771
11	0x3d79e5f9	0.061010335
12	0x3d97617e	0.07391642
13	0xbd92bd5c	-0.07165024
14	0xbd344531	-0.0440113
15	0xbd952022	-0.072815195

layer2.2.running_mean f4 [16]
0	0x3f184b6d	0.5949009
1	0x3f09ee10	0.5387888
2	0x3e9eeaae	0.3103842
3	0xbf6bbfe4	-0.92089677
4	0xbf8a9a0d	-1.0828263
5	0xbf3816f9	-0.71910053
6	0xbf14817b	-0.5801007
7	0xbf9c2393	-1.2198356
8	0xbd89bf35	-0.06725923
9	0xbef39928	-0.47577786
10	0xbcb4cf48	-0.022071496
11	0x3efd47ce	0.49468845
12	0x3e66600d	0.22497578
13	0x3f126cd0	0.57197285
14	0x3a15ee6b	0.0005719426
15	0x3f3caaf2	0.7369834

layer2.2.running_var f4 [16]
0	0x3f36ff85	0.7148364
1	0x3f141c12	0.5785533
2	0x3f356d13	0.7086956
3	0x3f3e10be	0.74244297
4	0x3f7c0655	0.9844716
5	0x3f58f50c	0.8474891
6	0x3ee06ba6	0.4383213
7	0x3fa74a98	1.3069639
8	0x3f2cc307	0.6748509
9	0x3f46c844	0.7764933
10	0x3f0fe421	0.5620747
11	0x3f23a1f4	0.63918996
12	0x3f019fe6	0.5063461
13	0x3f08f5c8	0.5350003
14	0x3f3171ac	0.69314075
15	0x3f4344d4	0.762769

layer3.0.weight f4 [20, 16]
0	0xbe09acc1	-0.13444807
1	0x3c2843c8	0.010270067
2	0x3e14a33e	0.14515397
3	0x3e983d21	0.29734138
4	0x3e045918	0.12924612
5	0x3df6ffda	0.120605186
6	0x3e9905b8	0.29887176
7	0x3e71b88f	0.2360556
8	0x3ea11759	0.31463125
9	0x3ef82b2c	0.48470438
10	0xbef12d7c	-0.47105014
11	0x3e98420b	0.29737887
12	0xbe7c68c3	-0.24649338
13	0x3eb0521c	0.34437644
14	0x3f03b9fe	0.51455677
15	0x3ea37649	0.31926182
16	0x3ee4a8e6	0.4466011
17	0x3ee8300c	0.45349157
18	0x3e6dfc23	0.23240714
19	0xbe3968c8	-0.18106377
20	0x3e34b03c	0.17645353
21	0x3d1c2d57	0.038129177
22	0x3ef94c77	0.4869115
23	0xbd1cb6c8	-0.03826025
24	0x3cffebab	0.031240305
25	0x3d55797d	0.052117813
26	0xbea07d3d	-0.3134555
27	0x3e8a94f8	0.2706678
28	0x3e0a09b2	0.13480261
29	0xbe449eed	-0.1920125
30	0xbe1b08bc	-0.1514005
31	0xbdb4cf16	-0.08828561
32	0xbe10c6c0	-0.14138317
33	0x3ec2a33e	0.3801517
34	0xbca88302	-0.020570282
35	0xbe6cbb6a	-0.23118368
36	0x3e7662c0	0.24061108
37	0x3e881f18	0.26586223
38	0xbea02dc6	-0.31284922
39	0xbe2e441c	-0.17018169
40	0xbe44da9d	-0.1922402
41	0x3ef789a3	0.48347196
42	0xbf1521d0	-0.5825472
43	0xbce2a8c8	-0.027668372
44	0x3ecd29e8	0.40071034
45	0x3a4f0192	0.00078966573
46	0xbea697ea	-0.32537776
47	0x3d6953af	0.056964573
48	0x3d927814	0.07151809
49	0x3cf6fcb5	0.030149797
50	0xbe910e5a	-0.28331262
51	0x3e8a0ce9	0.26962975
52	0x3ee06efb	0.4383467
53	0x3d9814f6	0.07425873
54	0x3ebaaa61	0.36458114
55	0xbe34105a	-0.17584363
56	0xbe50490b	-0.20340364
57	0x3e8b532c	0.27211893
58	0x3eb0ae8e	0.34508175
59	0x3e64049a	0.2226738
60	0xbe030004	-0.12792975
61	0xbc266608	-0.010156162
62	0x3e643c30	0.22288585
63	0x3c1d172b	0.009588043
64	0xbdf11714	-0.1177198
65	0x3daef9c1	0.085437305
66	0xbe8ba652	-0.2727533
67	0x3d96c2ef	0.073613994
68	0xbc605125	-0.013691221
69	0x3dd1ceae	0.10244499
70	0x3e03b8f5	0.12863524
71	0xbe8b6ae9	-0.27230003
72	0x3e738a7b	0.23783295
73	0xbdca2ebe	-0.098721966
74	0xbda80e5a	-0.08205862
75	0xbe0de4b8	-0.1385678
76	0x3ebd405b	0.36963162
77	0x3e2baaa0	0.16764307
78	0x3dec6b75	0.11543933
79	0xbe0c1650	-0.13680387
80	0x3e7877f3	0.24264507
81	0x3df18958	0.11793774
82	0xbec750bc	-0.38928783
83	0xbe42d3dd	-0.19026132
84	0x3eb643eb	0.35598692
85	0xbf0fbd73	-0.5614845
86	0x3ddad976	0.10686009
87	0x3ecd49f0	0.40095472
88	0xbdecd6f9	-0.1156444
89	0xbe2fe941	-0.17178823
90	0xbe39a292	-0.18128422
91	0x3decda9f	0.11565136
92	0xbf0f3f19	-0.55955654
93	0x3ca7f5a2	0.020502869
94	0xbdfe41ea	-0.12414916
95	0x3dc69948	0.09697205
96	0x3e0fb2f3	0.14033107
97	0x3d991b9e	0.07475971
98	0xbe64a432	-0.2232826
99	0x3e617816	0.22018465
100	0x3da44373	0.080206774
101	0x3ec7253e	0.388956
102	0x3e9c4cd1	0.30527356
103	0x3eb93c28	0.36178708
104	0x3e12aefd	0.14324565
105	0x3ec47da5	0.3837711
106	0xbc6364e5	-0.013879036
107	0xbe393749	-0.18087496
108	0xbe4e1d7f	-0.2012844
109	0x3ea56c46	0.3230917
110	0xbcc3fc8d	-0.023924137
111	0x3ec7446b	0.38919386
112	0xbe3aeda1	-0.1825471
113	0x3e21c2e8	0.15797007
114	0xbc6c599e	-0.014425663
115	0x3dd8d1ed	0.10586915
116	0x3d49754c	0.04918413
117	0xbda160a1	-0.078797586
118	0xbc9a1816	-0.018810313
119	0xbe146340	-0.14490986
120	0x3de8bd26	0.11364202
121	0x3ec653b7	0.38735744
122	0xbc3c3efc	-0.011489626
123	0x3c877138	0.01653348
124	0x3d0a8054	0.03381379
125	0x3e8f4034	0.2797867
126	0xbef7f481	-0.4842873
127	0x3e43dc95	0.19127114
128	0xbf153abb	-0.5829274
129	0x3e10545d	0.14094682
130	0xbc64327f	-0.013928055
131	0x3e6f3288	0.2335912
132	0x3e563027	0.20916806
133	0xbe5b3704	-0.21407706
134	0xbe832fb6	-0.25622338
135	0x3c290eae	0.010318441
136	0xbe1ee400	-0.15516663
137	0xbd869e9c	-0.06573221
138	0x3d9e8b5f	0.07741427
139	0xbdbdf978	-0.09276098
140	0x3e862863	0.26202688
141	0xbd9591fe	-0.073032364
142	0x3e73bb04	0.2380181
143	0xbe71b3a8	-0.2360369
144	0x3e7c16f4	0.24618131
145	0xbe1d6fbe	-0.15374658
146	0x3da1fe9b	0.0790989
147	0x3e88d01a	0.2672127
148	0x3eca9328	0.39565396
149	0x3e04ea07	0.129799
150	0x3edeab3d	0.4349002
151	0x3e8c20a0	0.2736864
152	0x3e313bf7	0.17308031
153	0xbe3c1e57	-0.18370949
154	0x3f14250d	0.57869035
155	0xbcf0ac89	-0.029379146
156	0x3e890d92	0.26768166
157	0x3e6cf980	0.23142052
158	0xbe7fca0c	-0.24979419
159	0xbe90ce9b	-0.28282627
160	0x3f03ddd2	0.51510346
161	0xbeacd2ba	-0.33754522
162	0xbee72816	-0.4514777
163	0xbdbbc785	-0.09168915
164	0x3e88e875	0.2673985
165	0xbe02ae26	-0.12761745
166	0x3e84a72b	0.2590879
167	0xbe023b97	-0.12718044
168	0xbd379647	-0.04482105
169	0xbe3253e1	-0.1741481
170	0x3efa3a5a	0.48872644
171	0x3ec2dac0	0.38057518
172	0xbdab0bef	-0.083518855
173	0x3ec168a0	0.37775135
174	0x3dfbdd37	0.12298053
175	0x3de0824b	0.109623514
176	0x3e41954f	0.18904613
177	0x3e8c5995	0.27412096
178	0x3ed47eb9	0.41502932
179	0xbecb9bbe	-0.3976726
180	0x3d3f98c4	0.046776548
181	0x3e11c565	0.14235456
182	0x3e7ac860	0.244905
183	0x3e7cf808	0.24703991
184	0x3e8ac3c1	0.27102473
185	0xbece8ff0	-0.4034419
186	0xbe10f70b	-0.1415674
187	0x3e4a493a	0.19754496
188	0xbdb045ab	-0.08607038
189	0x3cc4a1c7	0.024002923
190	0x3e014098	0.12622297
191	0x3b344cf2	0.0027511683
192	0xbdabb9e1	-0.08385063
193	0x3e983b20	0.2973261
194	0x3e426df0	0.1898725
195	0x3e20bd1e	0.15697142
196	0xbe706533	-0.23476104
197	0xbd9e8c10	-0.077415586
198	0x3e45e798	0.19326627
199	0x3f074f12	0.52855027
200	0xbe7e6eb4	-0.24846917
201	0xbe729471	-0.23689438
202	0xbe741022	-0.23834279
203	0x3f0a35cf	0.53988355
204	0x3e8135f5	0.25236478
205	0xbcf381fc	-0.029725067
206	0xbdbf80b0	-0.09350717
207	0x3da45601	0.080242164
208	0x3e954e87	0.29161474
209	0x3ecaa58b	0.39579424
210	0x3edf9b30	0.43673086
211	0x3d80fb25	0.06297902
212	0x3d9c8922	0.076433435
213	0x3e59afe0	0.21258497
214	0xbd55f4bf	-0.05223536
215	0x3dd67caa	0.104729965
216	0x3ea59808	0.32342553
217	0xbe0eb70e	-0.13937017
218	0xbe6b10a1	-0.22955562
219	0x3df3070d	0.11866579
220	0x3e27736e	0.16352627
221	0xbe02e5fd	-0.12783046
222	0xbde0290a	-0.109453276
223	0x3b8fb478	0.004385527
224	0x3def123a	0.11673398
225	0x3ebadc14	0.3649603
226	0x3dc20f8d	0.09475622
227	0xbde62199	-0.11236877
228	0xbdf29b1d	-0.11845992
229	0xbe9a3fd5	-0.30126825
230	0xbd643f16	-0.055724226
231	0x3db570a3	0.088593744
232	0x3ebcc81b	0.36871418
233	0x3d956828	0.07295257
234	0x3eea1cc1	0.45725062
235	0x3d233e4e	0.03985434
236	0xbe2e4254	-0.1701749
237	0x3d9f659e	0.07783054
238	0x3daf7e1d	0.08568976
239	0x3e10c5f5	0.14138015
240	0x3e98dfd2	0.2985826
241	0x3e35df5b	0.17760985
242	0x3d498410	0.04919821
243	0xbe50ff45	-0.20409878
244	0x3dab2a0c	0.08357629
245	0xbf1b38b9	-0.60633427
246	0xbd2cef28	-0.042220265
247	0x3e8462c9	0.25856617
248	0xbeea805b	-0.45801052
249	0x3e84c9e9	0.25935295
250	0xbdbe8b25	-0.093038835
251	0xbf0b2e75	-0.5436776
252	0x3dfb43cc	0.122687906
253	0x3e8894fe	0.26676172
254	0x3dfa57ea	0.122237995
255	0xbeae384d	-0.3402733

layer3.0.bias f4 [20]
0	0x3e04983f	0.12948702
1	0x3e015ba7	0.12632619
2	0x3ddf72dc	0.109105796
3	0x3e05024a	0.12989154
4	0x3dfeea40	0.124470234
5	0x3dd8df0a	0.10589416
6	0x3de9c8ff	0.1141529
7	0x3ddf8c1d	0.10915396
8	0x3e05aa4a	0.13053241
9	0x3dd118f0	0.102098346
10	0x3ddfa519	0.10920162
11	0x3dd98894	0.10621753
12	0x3dd1d6fb	0.102460824
13	0x3dee47f8	0.11634821
14	0x3deb503c	0.11489913
15	0x3db3c6e1	0.087781675
16	0x3df7b5e6	0.12095241
17	0x3e0537ea	0.13009611
18	0x3dd83e0d	0.1055871
19	0x3dfd1119	0.12356777
